ONLY NUMERICAL FEATURES/REGRESSION/CRPS/checkpoint.pt (torch, 308258 bytes, 9 tensors)

blocks.0.linear.weight f4 [155, 21]
000000 cc 05 e9 b9 7b ff 2c 3c 86 58 87 bd 9f 4c 9a 3d
       -0.00044445542 0.010558958 -0.066086814 0.075341456
000010 bb d6 c2 bd 18 7e 8e bc be d7 c4 3d 0d cb 63 3e
       -0.09513613 -0.01739411 0.09611462 0.22245426
000020 0e 2c a0 3d 4a 79 5c bd 61 a5 22 3d 7c 6e 1b bc
       0.07820903 -0.053826608 0.0397085 -0.009486791
000030 58 15 cb 3d f4 9b 1b 3d 00 a9 da 3d d6 a5 6e 3e
       0.0991618 0.037990525 0.106767654 0.23305449
000040 58 06 95 bd 69 20 49 3c 29 49 93 3d 37 f6 1a 3d
       -0.072766006 0.012275794 0.071916886 0.037832465
000050 dc cd 52 3c 10 1f 66 be 7c a7 5a be c0 5f 70 be
       0.0128664635 -0.22472787 -0.21352953 -0.23474026
000060 d6 bd 81 be 95 39 7b be fc 4b 4f be 98 a6 6c be
       -0.25340146 -0.24533685 -0.2024383 -0.23110425
000070 32 7a 71 be ad 77 81 3d 96 eb c3 3d 8c 3a ef 3d
       -0.2358177 0.063216545 0.09566419 0.11681089
000080 87 fb bb 3d b3 08 72 3d 2a 23 7e 3d 43 3d 24 be
       0.091788344 0.059090327 0.062045254 -0.16038994
000090 a4 3f 20 3e 68 fe 4d bd 0e e3 1a 3e 18 5a e3 3c
       0.15649277 -0.05029145 0.15125677 0.027752921
0000a0 1e f2 0b 3e 50 20 08 3e 62 ba 06 bd ca 6e 55 bd
       0.13666579 0.13293576 -0.032892592 -0.05210761
0000b0 2f a2 59 3d 1a dc 57 3c 8e dd 63 3d 86 45 fe 3d
       0.053133186 0.013175035 0.055631213 0.12415604
0000c0 c8 a1 20 be 7e 6e 22 3b 7b 43 13 be b5 6c 64 3e
       -0.15686715 0.0024785097 -0.1438121 0.22307093
0000d0 13 13 11 be ad 20 64 3d ea eb 49 bd 7d c4 0e 3e
       -0.14167432 0.055695225 -0.04929725 0.13942142
0000e0 2f 74 1f 3c df 10 76 bc 1f 4e 2e 3e 8b e9 5b 3e
       0.00973229 -0.015018671 0.17021988 0.21475808
0000f0 84 1c 0d be 87 cb 51 be dc 52 06 3d e5 76 86 3d
       -0.13780409 -0.20487796 0.032793865 0.06565646
000100 01 2d 4e 3d dc e7 46 3e 75 f9 ae 3d b6 c5 e1 bd
       0.050335888 0.19424385 0.08543674 -0.110240385
000110 0a 47 29 be 19 17 21 3e bb cc 48 3e f1 23 e4 bd
       -0.16531006 0.15731467 0.19609348 -0.11139668
000120 9e fc 0d be 34 dd a4 3d 18 0a 1a be ab 30 39 bd
       -0.13865897 0.08050004 -0.15042913 -0.04521243
000130 91 03 67 be b3 c2 5d 3d 9f 21 a0 bd f7 14 0d be
       -0.22559954 0.054140758 -0.07818913 -0.13777529
000140 f6 6b 1d be aa 01 ad bd 22 e2 c4 3d 3c 15 ed 3b
       -0.15373215 -0.08447583 0.09613444 0.0072351974
000150 2c 4e 3d 3e 61 0d a4 bd 49 0b 75 bd 98 94 5c 3e
       0.18486851 -0.08010364 -0.059825215 0.21541059
000160 8c 40 50 be d1 71 b1 bd c5 e3 07 be 9b d2 57 3e
       -0.20337123 -0.08664287 -0.13270481 0.21076433
000170 27 38 f6 3d 5e 2d 8a bd 52 33 b2 bd 4d f6 93 3d
       0.12022429 -0.06746934 -0.08701195 0.072247125
000180 20 5f 8a bd e1 13 94 3d 0d 87 db bd 16 b0 05 be
       -0.06756425 0.07230354 -0.10719118 -0.13055453
000190 cc be b4 bb ca 9a 02 3e 23 7c 3f 3e fb ac 4f 3d
       -0.005515909 0.1275436 0.18699698 0.050702076
0001a0 fc 4d 01 be d4 56 d8 3d 20 f5 9d 3d ea b6 af 3d
       -0.12627405 0.10563436 0.077127695 0.0857981
0001b0 e6 94 a1 bd 6f d0 13 bd 64 84 bc 3d 9d c1 a6 3d
       -0.07889728 -0.03608745 0.09204939 0.081423976
0001c0 51 cb 0b 3e 18 4c 0c be cd 6c d1 3d 77 e9 e5 bd
       0.13651778 -0.13700902 0.1022583 -0.112261705
0001d0 19 a8 0e bd 54 96 d0 b8 12 06 a9 bd 40 0b 0e 3e
       -0.03482828 -9.946214e-05 -0.08253111 0.13871479
0001e0 63 23 36 3e d7 6d 8b 3d b8 be 2c be 6b 61 ae bd
       0.17786936 0.0680806 -0.16869628 -0.08514675
0001f0 60 6a 12 3e 7e ed 84 bd 86 ca 5c be a7 1e 87 3c
       0.14298391 -0.064906105 -0.21561632 0.016494108
000200 5f 4d 6f be df 4e 24 bd c0 ee 89 bd 63 de 17 bd
       -0.23369358 -0.04011428 -0.06734991 -0.03707732
000210 73 57 b3 bd af 25 86 bd 7a b7 28 be 47 46 38 be
       -0.08756914 -0.06550156 -0.16476241 -0.17995559
000220 b5 56 0f 3d ab b7 28 3e 5a 79 4d be 5f 35 74 be
       0.0349948 0.16476314 -0.20065823 -0.23848484
000230 26 50 1e be 0f 9d 30 3e 49 e4 1f 3e 58 2b 81 be
       -0.15460262 0.17247413 0.15614428 -0.2522838
000240 f8 30 89 3c f4 da fb bb 57 10 1e 3e 0d d0 05 b8
       0.016746983 -0.0076860134 0.1543592 -3.1903433e-05
000250 1e d8 26 38 00 d0 f0 b8 48 f3 6a ba 11 7b ad 36
       3.977876e-05 -0.00011482835 -0.00089626433 5.1701286e-06
000260 b6 d6 e0 b8 09 42 19 b6 43 03 8c b7 f1 84 0d ba
       -0.000107211454 -2.2837214e-06 -1.669082e-05 -0.0005398533
000270 c2 80 45 39 b8 88 a6 39 8f ad e9 39 a1 c3 d9 36
       0.0001883535 0.0003176385 0.00044570534 6.489878e-06
000280 32 3d 74 ba 96 17 08 ba 76 18 9d b6 a7 1d 9a b6
       -0.000931698 -0.0005191503 -4.6818122e-06 -4.5930096e-06
000290 dd f5 53 ba c6 9c 6b 39 5d 96 d6 b9 ef 60 68 b5
       -0.0008085648 0.00022469749 -0.0004092929 -8.656779e-07
0002a0 48 4b 79 be 51 63 f5 3c 67 79 0e bd 48 7b e6 3d
       -0.24345124 0.029954584 -0.034783747 0.11253983
0002b0 76 53 14 bb bf be 55 be ac d3 2f 3e a6 f2 6b be
       -0.0022632754 -0.20873545 0.1717059 -0.23041782
0002c0 c5 07 76 3d fa bd 37 be b8 97 b6 3d 74 a1 d4 3c
       0.060066003 -0.17943564 0.08915657 0.025955893
0002d0 b6 16 22 3d 78 24 9d bd 7b 6c 22 3e dc 07 2f 3e
       0.03957244 -0.076729715 0.15861695 0.17092842
0002e0 d6 9b 71 bd 1f e0 da bd 5c e4 38 bb 30 7a d5 3d
       -0.058986507 -0.10687279 -0.0028212285 0.10423696
0002f0 f4 6d 27 3e 28 55 30 3e b2 7b 9c 3d 97 62 b2 bb
       0.16350538 0.17219985 0.076407805 -0.0054438817
000300 07 22 46 be 85 db 4a be 6c 9c ec 3d 55 63 68 be
       -0.19348918 -0.19810303 0.115532726 -0.22694142
000310 ff d1 2c bd 21 20 17 3e 33 04 4e be a3 7d 22 be
       -0.042192455 0.1475835 -0.2011879 -0.15868239
000320 17 cb 61 be 25 45 f0 3d 34 d2 a1 3c 56 09 c6 3d
       -0.22050129 0.11731938 0.019753553 0.096697494
000330 94 fb 80 bd 2a 4e d2 bd 71 f9 1a 3e 3b 96 35 be
       -0.06297985 -0.10268815 0.15134217 -0.1773309
000340 7d 69 2e be 0d 80 ea 3d 6e 97 44 3e f4 74 e2 bd
       -0.17032428 0.11450205 0.19198391 -0.11057463
000350 01 21 53 be b0 e8 05 3c 86 d4 70 bb ea fd 75 3d
       -0.20618059 0.008173153 -0.0036747768 0.060056604
000360 76 d4 e2 3d e4 87 af 3c 8d 4f 0e be 77 31 94 bc
       0.1107568 0.021427102 -0.13897534 -0.018089993
000370 65 fa bb 3d 4b 6a f0 3c 33 18 a2 b9 bc 77 85 bc
       0.09178618 0.02934756 -0.00030917078 -0.016292445
000380 3d 66 26 bd ed 70 bf bd 08 34 d7 3d 9a d6 a3 3d
       -0.040624846 -0.09347711 0.10507971 0.079999164
000390 db e4 35 3e 32 ef 37 3e 5d 24 22 bc 40 5b 53 3e
       0.17763083 0.1796234 -0.009896365 0.20640278
0003a0 05 b6 3b 3e 50 f5 8a 3e 01 a3 84 3e 7c 3c 89 3e
       0.18331154 0.27140284 0.25905612 0.26803958
0003b0 c7 9a 8c 3e f8 f8 88 3e be a6 55 3e 46 4b 40 3e
       0.27461836 0.26752448 0.20864388 0.18778715
0003c0 ab fa 27 3e 0a b0 25 3e 2f 61 3e 3e 9e 05 1b 3e
       0.16404216 0.16180435 0.1859176 0.15138862
0003d0 f9 ee 49 3e e6 f9 7a 3e 0f 12 83 3e 05 36 8f 3e
       0.19720067 0.24509391 0.25599715 0.279709
0003e0 b4 cd 8c 3e 99 80 88 3e 8b a1 33 3e 4b fe 89 3e
       0.2750069 0.26660612 0.17542093 0.26951823
0003f0 1a 76 41 39 64 7e 05 39 fd a7 f3 b9 4b dd b1 38
       0.0001844991 0.00012730953 -0.00046473733 8.481237e-05

blocks.0.linear.bias f4 [155]
000000 9f f8 b5 3c c4 2f 1b 3c bb 90 14 3c 38 11 28 3e
       0.022213278 0.009471837 0.00906771 0.16412818
000010 36 31 31 be 0c 7c 31 be eb ca 53 be c9 b9 50 39
       -0.17303929 -0.17332476 -0.20682876 0.00019905636
000020 8c 27 e8 bc 88 f1 6c 3d 16 46 3a bd 09 93 8e 3e
       -0.02833917 0.05784753 -0.045476995 0.27846554
000030 44 d6 21 ba 4a 55 cf 3d c4 7b 70 be 26 73 35 be
       -0.00061735907 0.101236895 -0.23484713 -0.17719707
000040 dc 18 71 bc 61 c1 5b bd 18 92 bb bc 63 dc 33 b9
       -0.0147154 -0.053651217 -0.022896811 -0.0001715287
000050 2c 4e 23 3e 0a 7c 30 3e d2 b3 03 be df 5f 34 3e
       0.15947789 0.17234817 -0.12861565 0.17614697
000060 0d 4d 48 3e fa 05 63 bb be 62 f4 3d 3d 55 28 ba
       0.19560643 -0.0034641013 0.11932896 -0.0006421393
000070 5d 68 cb bd c8 bc f6 b9 82 fc 6b be 9c 93 0b 3d
       -0.09932015 -0.0004706143 -0.23045543 0.03407632
000080 da 0f 31 be cd 4c 01 bd a6 75 b8 3c 84 25 af b9
       -0.17291203 -0.031567384 0.022517037 -0.00033406552
000090 64 4c 37 38 10 bf 0b 3c f7 4a 8a bd 5c 26 17 3a
       4.3701744e-05 0.00852944 -0.0675258 0.0005765909
0000a0 81 98 68 bd b5 b8 df bd a4 08 16 b8 5e 82 6f 3d
       -0.056786064 -0.10923902 -3.5770834e-05 0.058473937
0000b0 1f f6 ad 3d a3 b4 7a bd f1 f0 3b 3e b8 c4 08 3e
       0.084942095 -0.061207425 0.1835363 0.13356292
0000c0 5c 8c 97 39 23 d5 f8 3d fe 25 e0 b7 ad 74 7f bd
       0.0002890554 0.121500276 -2.6720572e-05 -0.06236713
0000d0 7b 9a 29 be 73 53 44 be 78 49 90 b7 ae ef 39 3e
       -0.16562836 -0.19172458 -1.720035e-05 0.18157837
0000e0 dd 54 42 b9 3c da 96 3d 1f 5b 8a 3d 62 e1 36 be
       -0.00018532896 0.07365844 0.06755661 -0.17859414
0000f0 ec db 40 be ef a9 40 3e e2 70 3b be 24 c6 47 3e
       -0.18833894 0.18814825 -0.1830478 0.19509178
000100 ab 7a 5e be 5a 47 65 36 da d9 9f bc b7 60 d9 3d
       -0.21726482 3.4165191e-06 -0.01951306 0.1061415
000110 db 69 3e be 7e 89 aa bc 12 2c c1 b6 93 01 7f 3d
       -0.18595068 -0.020817515 -5.7569787e-06 0.06225736
000120 b1 8c 3a 3a 24 64 5e 3c 44 af aa b8 35 33 3d be
       0.00071163016 0.01357368 -8.1388775e-05 -0.18476565
000130 d5 6d 84 bd f1 cd f3 b9 8a ec e9 bd 6a 8b 0b b8
       -0.06466261 -0.0004650201 -0.11422069 -3.3270022e-05
000140 09 b7 76 be e8 77 61 35 3b a3 09 be 76 e3 10 3e
       -0.2409326 8.399352e-07 -0.13441174 0.1414927
000150 7c 0d 00 3e 75 88 39 be cb af b7 bd bc c4 d1 bd
       0.12505144 -0.1811846 -0.08969077 -0.10242602
000160 91 52 bb 35 93 e0 10 be f1 b7 6b bc 97 c8 ed 36
       1.3956616e-06 -0.14148168 -0.014387117 7.086502e-06
000170 49 fe e8 38 7c c2 5c b4 88 ac 61 38 62 d3 d3 3d
       0.000111099864 -2.055985e-07 5.3804863e-05 0.103430524
000180 10 32 59 3e 3c 52 5c 37 39 f5 4c be 59 60 31 3d
       0.21210504 1.31321685e-05 -0.2001542 0.043304775
000190 16 f6 de 3d b3 c8 8c 3e a6 85 4d 39 15 9d 86 3a
       0.10886781 0.2749687 0.00019600111 0.0010270203
0001a0 53 ae e0 39 69 f2 e2 3c 9a 34 db 3d e4 3e 98 bd
       0.0004285449 0.02770348 0.10703392 -0.074338704
0001b0 91 95 31 be 1a 05 65 be 33 64 0c be 2d 87 64 be
       -0.17342211 -0.22365227 -0.13710098 -0.2231719
0001c0 68 03 23 b9 53 52 04 3a 83 af 64 b8 8a 6e 4f be
       -0.0001554616 0.00050476677 -5.4522894e-05 -0.20257011
0001d0 59 87 c1 bd d3 75 d6 3d 26 85 45 3a cf 2a 55 b9
       -0.09449644 0.10471692 0.0007534794 -0.0002032921
0001e0 1c a6 1a 3c 81 6e 11 bc 03 d9 01 bd e4 70 23 3d
       0.009439018 -0.008876444 -0.0317011 0.039902583
0001f0 fe dc 37 be ce 14 37 b9 85 b9 f2 b7 f5 95 1b b5
       -0.17955396 -0.0001745999 -2.8935037e-05 -5.7960216e-07
000200 d6 1d 2c 3d de da a3 37 72 ca fd 3d 67 e8 36 35
       0.04202064 1.9533032e-05 0.12392129 6.8138473e-07
000210 4c 43 a9 38 40 fb 2f 3e 66 98 a2 bd ae d6 94 b8
       8.071083e-05 0.17185688 -0.07939224 -7.097177e-05
000220 e1 5e 83 37 3c 22 40 3d d2 6a 89 3e aa b3 fc b8
       1.5660598e-05 0.04690765 0.2683931 -0.000120497614
000230 a9 96 13 37 e4 bb b5 bd c2 30 8b 3c 5a ac 4c bd
       8.796961e-06 -0.08873728 0.016991023 -0.049969055
000240 c2 2c 89 3d 93 b5 02 b9 21 03 87 38 9c bc 1e bd
       0.0669799 -0.00012465408 6.4378844e-05 -0.03875409
000250 c5 05 0e be 27 3b 95 3d a0 59 82 3d 1c bf 13 be
       -0.13869388 0.07286673 0.06364751 -0.14428371
000260 80 b9 b0 bc e6 cc dc bc 12 d6 57 3e
       -0.021572828 -0.026953172 0.21077755

blocks.1.linear.weight f4 [155, 155]
000000 07 0a 9b bd d4 b8 8f bd 64 8d 33 3d 14 bb d8 3b
       -0.07570272 -0.07017675 0.043836012 0.0066140983
000010 31 fb 4f bd ea 3b 91 3d 13 3a 27 3d 54 77 e7 37
       -0.050776664 0.07091506 0.04082687 2.7592912e-05
000020 fd 06 6b bd d0 41 c1 3c aa 2d 90 b6 ed fe 73 bd
       -0.05737971 0.023590952 -4.2968504e-06 -0.059569288
000030 4d e1 92 34 28 28 91 bd a4 d1 5f bc f2 4f 21 3c
       2.7358547e-07 -0.07087737 -0.013660822 0.009845721
000040 01 4f 67 3d 25 2e 87 bd 94 56 01 bd 78 66 0d 37
       0.05647183 -0.06600598 -0.031576708 8.428113e-06
000050 eb 20 a5 bd 33 fa 92 bd f0 9f 94 bc 27 d9 87 bd
       -0.08062919 -0.07176628 -0.01814267 -0.066332154
000060 9e 04 2c bd 9e 4c 4f bd 5c 2e 84 bb 6b 46 57 b8
       -0.04199659 -0.050610177 -0.004033847 -5.1325576e-05
000070 49 0d 37 bd 11 f1 d1 bd b4 60 85 bd 5b dd 51 3d
       -0.044690404 -0.10251058 -0.06512585 0.05123649
000080 cf e9 9c bd af 92 0f 38 40 4f b7 bd af de 2c b7
       -0.07661783 3.4230467e-05 -0.089506626 -1.03038465e-05
000090 4d e5 84 b7 bb 20 ff 37 4b 82 ef 3c 47 63 57 37
       -1.5842403e-05 3.041361e-05 0.029236933 1.2838113e-05
0000a0 8e c4 2e 3d f8 66 0c 3d 92 ac 1e b8 a9 af 87 bc
       0.042667918 0.034277886 -3.7830854e-05 -0.016563253
0000b0 57 41 26 3c b5 3a c9 3b b1 4b 85 bd 03 16 12 3d
       0.010147414 0.0061410316 -0.065085776 0.035665523
0000c0 82 33 5d b7 d5 c5 b2 bc 57 d3 39 b5 8f 5e 36 bc
       -1.3184619e-05 -0.02182285 -6.922541e-07 -0.011130943
0000d0 71 ca 5c bd 89 a3 2f 3d 44 7d e9 b5 d4 38 79 bc
       -0.053904 0.04288057 -1.739631e-06 -0.015211303
0000e0 1c 7c 12 b6 73 76 19 3d d8 3f 8e bd c4 85 15 3d
       -2.1827937e-06 0.037466478 -0.06945771 0.036504522
0000f0 f7 5a b2 3c c3 f4 bb 3c 77 95 11 3d 47 0c 05 bd
       0.021771891 0.02294386 0.03554293 -0.03248241
000100 64 0d 13 bd 48 39 6e 37 e6 12 45 3d a3 e8 6b bd
       -0.035901442 1.4199242e-05 0.048113726 -0.057594907
000110 94 6b 25 b8 53 d5 d0 37 c3 43 10 b8 d4 11 48 bc
       -3.9439255e-05 2.4894869e-05 -3.4395383e-05 -0.012211282
000120 fe cb 08 37 8b 71 01 bd 9b 34 df 37 9a 5d 1b 3d
       8.153727e-06 -0.031602424 2.6608168e-05 0.037931062
000130 cc 81 a8 3c ff 93 46 b7 8a 08 83 bd b6 37 b5 37
       0.020569704 -1.1836178e-05 -0.06398113 2.1602824e-05
000140 37 1d 5d 3d 76 d4 fb 37 a2 3a 0b 3d 42 43 d9 3c
       0.05398294 3.0020467e-05 0.033991463 0.026521329
000150 78 f3 06 3d c0 dc 33 3d cb 46 84 3c a9 98 96 bb
       0.032947034 0.043911695 0.016147038 -0.004595835
000160 e8 31 01 b8 33 14 ab bc 6a e7 2a b5 1e ec 8e 37
       -3.0802476e-05 -0.020883655 -6.3666687e-07 1.703767e-05
000170 f5 7f 42 b8 37 7d 16 36 8c 07 5a b6 38 e0 4a 3d
       -4.6372374e-05 2.2424626e-06 -3.2488924e-06 0.049530238
000180 dc e1 33 be 9c 95 4f b6 30 ae 18 3d 2b 77 78 3c
       -0.17566627 -3.0932488e-06 0.037275493 0.015165131
000190 1a 40 a4 bc 92 f1 cc bd 72 87 4d b6 fe bb 11 37
       -0.020050097 -0.100070134 -3.062622e-06 8.686444e-06
0001a0 00 8f 3f 36 b0 be 58 bc d5 b4 ac 3c e2 bf b3 3c
       2.8544455e-06 -0.013229057 0.021082321 0.021942083
0001b0 67 56 0b 3d ce a0 97 bc 64 ab 67 3d d0 d2 ab bd
       0.034017947 -0.018509295 0.056559935 -0.08389819
0001c0 95 79 f7 37 61 26 b7 b7 2f 80 c6 36 ce 65 28 3d
       2.950131e-05 -2.1833172e-05 5.9157824e-06 0.041112714
0001d0 60 06 88 3b 06 44 b0 bd c5 40 cd 37 20 ee 03 b8
       0.0041511506 -0.086067244 2.4468065e-05 -3.1454605e-05
0001e0 59 8e 5f b7 d7 3b 9f bc 71 bf b5 3c 89 31 93 bc
       -1.3324979e-05 -0.019437714 0.022186013 -0.017967956
0001f0 ab d8 62 bc 19 42 55 b8 e5 46 01 b4 08 f8 38 37
       -0.013845603 -5.0844716e-05 -1.2039852e-07 1.1025004e-05
000200 78 98 2b bd 22 b1 22 b7 92 b1 d8 3c 07 8f c4 36
       -0.041893452 -9.697194e-06 0.02645186 5.8579058e-06
000210 77 11 0c 34 77 1b 88 bd 67 d5 43 bb fa 4d bb b4
       1.304487e-07 -0.066458635 -0.0029881836 -3.48882e-07
000220 68 da 48 b8 f0 e8 37 3c 3f de b1 bd 31 59 d7 35
       -4.7887122e-05 0.01122497 -0.08684968 1.6044706e-06
000230 fc c5 cd 36 bc d9 5c bd 73 88 ac bc 37 d4 cc 3c
       6.1325245e-06 -0.053918585 -0.021061158 0.025003536
000240 95 62 bd bd 64 b0 2b b4 e2 76 13 b7 8d 75 b4 3d
       -0.09247319 -1.5989787e-07 -8.789562e-06 0.088114835
000250 33 b9 50 bd 6e 5d 1e bd 5b 1c 60 3d 01 41 98 bb
       -0.05095787 -0.03866332 0.054714542 -0.004646421
000260 b1 3b 89 3c 15 11 fd bb 93 8c 3d bb 66 51 c2 bc
       0.016752096 -0.0077229836 -0.00289229 -0.023720454
000270 af 93 37 3d b3 72 e1 3c 50 47 3e bd e1 9c 8c bc
       0.044818576 0.027520513 -0.046454728 -0.01716465
000280 3e 72 8f bc 10 cc 14 3c bd 03 8e b4 d8 7d b3 bc
       -0.01751053 0.009081855 -2.645228e-07 -0.021910593
000290 fb 07 de 3c 68 fc 06 b8 e0 bb 50 bd 64 37 74 37
       0.027103415 -3.218316e-05 -0.05096042 1.455643e-05
0002a0 15 7b 93 bd 5a 31 0d bd 0f 81 8c bc 70 8f eb 37
       -0.072012104 -0.034470893 -0.017151384 2.8080976e-05
0002b0 45 82 42 3d 41 27 0d bd ba 1f 36 38 b9 5d b0 bd
       0.047487516 -0.034461264 4.342173e-05 -0.08611626
0002c0 60 57 80 bd 11 5d 68 ba a8 cf 44 bd 0c 60 09 3d
       -0.062666655 -0.00088639656 -0.0480496 0.033538863
0002d0 21 78 01 3c fe 4c ea bc be 43 25 37 b7 03 e7 bb
       0.007902176 -0.028601166 9.850539e-06 -0.0070500034
0002e0 f7 45 a6 bd 13 26 71 bc 22 d2 a7 bd 00 bf 22 bd
       -0.081188135 -0.01471855 -0.081943765 -0.039732933
0002f0 f2 5d 41 35 57 37 84 3d 63 ca c4 37 b0 0e c3 34
       7.203481e-07 0.06455868 2.3459264e-05 3.6332267e-07
000300 61 13 50 36 60 08 6e bd db 08 36 38 38 d9 45 bd
       3.1005695e-06 -0.058113456 4.340043e-05 -0.04830286
000310 4a 4c a7 bb 90 91 c0 b7 ca 3d 23 3c c3 84 24 3d
       -0.00510553 -2.2955966e-05 0.009963462 0.040165674
000320 e8 5e f7 3c c8 94 b6 3c 98 ad 25 3c 1a 7b 1e 38
       0.030196622 0.022287741 0.010112189 3.7784783e-05
000330 b8 e2 5a 3c e3 01 77 37 17 0c a4 bd 1d ca 84 3d
       0.013359718 1.4722787e-05 -0.080101185 0.064838625
000340 da d0 a4 bc ab 81 20 38 94 56 08 3d 83 bd 36 b8
       -0.02011912 3.8267735e-05 0.033285692 -4.3568678e-05
000350 1d 2b 99 bc 50 69 32 3d 0e bc c4 bc a4 26 1f bd
       -0.018697316 0.043557465 -0.024015453 -0.03885521
000360 0b f8 ef 3c 0d 18 04 3d 0d 77 56 bd 2f 76 29 bc
       0.02929308 0.0322495 -0.05235963 -0.010343119
000370 5b 31 fb b7 5b b3 db bc fd a4 27 bd 21 62 71 b7
       -2.9944515e-05 -0.026818922 -0.04092883 -1.4387567e-05
000380 40 d5 2d b7 e0 11 f7 b4 b8 53 65 3b 38 49 d2 37
       -1.0361255e-05 -4.602034e-07 0.0034992527 2.5068046e-05
000390 c4 a2 05 bc 5c bb e9 36 31 7e 5f bd b1 fc ac bd
       -0.008156482 6.9657526e-06 -0.054563705 -0.084466346
0003a0 0f a1 3d 37 80 a3 69 bd 1f 3c 4f b7 83 d8 a3 bc
       1.1302777e-05 -0.05704069 -1.23521595e-05 -0.020000702
0003b0 1a 17 b4 35 a0 5a cb bd ab 9b 9e bd 06 b1 38 bd
       1.3417769e-06 -0.09929395 -0.07744535 -0.045090698
0003c0 d8 22 bc bc 9f 3f ac bd c7 37 05 bc d5 56 f0 37
       -0.022965834 -0.08410572 -0.008130974 2.8650664e-05
0003d0 4b 69 e4 3c bb 6a 55 38 55 fc 83 36 f5 47 4a 36
       0.027882239 5.0882558e-05 3.9334795e-06 3.014223e-06
0003e0 40 75 d2 b7 ed 85 18 36 fc 77 06 3d 27 5d b4 bb
       -2.508855e-05 2.272772e-06 0.03282927 -0.0055042687
0003f0 38 1a 17 37 0c 7a a1 bd 59 cf 89 3b 1e c2 5b 3c
       9.006406e-06 -0.07884607 0.004205626 0.01341298

blocks.1.linear.bias f4 [155]
000000 78 5b 93 bd 83 28 9e bd c9 06 c8 bd e9 02 3a bd
       -0.07195181 -0.07722571 -0.09766919 -0.04541293
000010 b2 6c 98 bd 23 6d 82 bc 85 3b b5 bd aa a8 b0 bc
       -0.07442607 -0.015921181 -0.08849243 -0.0215648
000020 7c e2 82 3c b2 81 f6 3c 8b ef 1f 3c 61 91 d6 bc
       0.015977137 0.03009114 0.009761701 -0.026192369
000030 bd f8 14 bd 0d 9f a7 bb 9d b6 39 bd b4 99 ac bc
       -0.036370028 -0.005115396 -0.04534017 -0.021069385
000040 69 2a 43 3d ba a2 b3 bd e1 f6 cb bc 7a d2 5d 3c
       0.047647867 -0.08771272 -0.024897994 0.013538951
000050 88 26 bf bd 12 df e6 bd 44 9a f2 3a b7 2f f2 3b
       -0.09333521 -0.11273016 0.001850911 0.007390942
000060 32 f2 e7 bc 62 ed e1 3b a1 78 0b 3a 7a db 8c bd
       -0.02831373 0.0068947533 0.00053204043 -0.06877799
000070 2f c2 b7 bd a9 45 a1 bb d8 49 e5 bd e8 69 c8 bd
       -0.089725845 -0.004921634 -0.11195725 -0.09785825
000080 6c f6 b0 bd 5f a2 1c 3d 79 77 39 bd c8 7c 32 bd
       -0.08640751 0.038240787 -0.045279954 -0.043576032
000090 9f 0c 1d bd 84 29 36 3c 86 fc f1 bd ec 56 43 bc
       -0.038342115 0.0111182965 -0.11815743 -0.011922579
0000a0 2e 7d 1f 3d af ff c3 bc 49 7a f5 bc b0 09 e4 bd
       0.03893774 -0.02392563 -0.029965537 -0.1113466
0000b0 4f 87 b2 bd 73 01 17 bc 0d 72 b6 bd 08 c0 67 3c
       -0.08717214 -0.009216654 -0.08908472 0.014144905
0000c0 fa 7b 36 bc 87 bf 90 bd 8d 78 2e 3d 2b b5 ab 3c
       -0.011137957 -0.07067781 0.042595435 0.020960411
0000d0 c0 70 9d 3c cd d0 a2 bd 43 22 c2 bd cd 9e e5 bc
       0.019218802 -0.07949982 -0.09479191 -0.028029824
0000e0 aa f9 db bd 6a 11 43 bd 75 7f ba bd d9 e7 99 bc
       -0.10740979 -0.04762403 -0.09106342 -0.018787311
0000f0 bc 31 a2 3c 10 47 4b bd ef c1 b4 bd 05 0d 27 3c
       0.019799106 -0.049628317 -0.088260524 0.010195975
000100 e3 b5 e8 3c 42 0f 28 3d 01 7e 17 bc 8a a3 08 3b
       0.028407043 0.041030176 -0.00924635 0.002084943
000110 20 1e 31 bc cc 2a 1a 3d 2d 0e 06 3d 14 d4 bd bd
       -0.010810405 0.03763847 0.032728363 -0.09268966
000120 66 ed bd bd 55 10 f6 bc 20 03 a6 bd 64 09 17 bc
       -0.09273796 -0.030037085 -0.08106065 -0.0092185475
000130 52 e3 65 bd 4b 0c f0 bd 95 43 9d 3c 62 ff d4 3c
       -0.056124993 -0.11721095 0.019197265 0.026000682
000140 d8 d0 d6 bd bb ff 99 bd 84 cd 91 3c 99 22 c6 3b
       -0.104890525 -0.0751948 0.017798193 0.006046605
000150 df 48 e5 3c d6 6f 80 bd 70 2a 58 3c 7b ab d6 bb
       0.02798885 -0.06271331 0.013193712 -0.006551204
000160 f4 18 8a bd 6c 51 83 bd e9 28 a7 bd 16 0c 14 3d
       -0.06743041 -0.06412014 -0.081621 0.03614434
000170 b9 6e f3 bd a4 f5 39 3d 16 c4 e8 bc ad f1 75 3c
       -0.11886353 0.045400277 -0.028413814 0.015011233
000180 85 ab 60 bc 7e 60 14 bb 7b a2 bf bd 6f e7 84 bd
       -0.013712768 -0.0022640522 -0.093571626 -0.06489455
000190 a8 26 ec bd 8d 26 22 3b d4 fd 4f bd 9c fb e9 bc
       -0.115308106 0.0024742216 -0.05077918 -0.02856236
0001a0 13 34 53 bd 95 4b f1 bd aa f4 43 bd 4e c0 29 bd
       -0.051563334 -0.11781994 -0.04784075 -0.04144316
0001b0 b0 73 3a bd 34 a0 0d 3d 3b 85 bc 3c ba e9 4e 3d
       -0.045520484 0.03457661 0.023012748 0.050515868
0001c0 ab 23 bf bd 86 ed c8 bd 37 5e 7a bd 9f 38 6c bd
       -0.09332975 -0.09810929 -0.061125007 -0.057671186
0001d0 54 62 dc bd 4e 91 8c bd d3 bc 54 bc b2 0a f8 3c
       -0.10760942 -0.06863652 -0.012984472 0.030278537
0001e0 bc 1a 84 bc 79 e7 5c bd 79 95 da bd a1 e7 02 3d
       -0.01612603 -0.053931687 -0.10673041 0.03195918
0001f0 2d 83 82 bc 72 fe 73 bc 4b da 3a bd dc 2f b8 bd
       -0.01593169 -0.014892207 -0.045618337 -0.089935035
000200 70 e2 cb bc 67 16 e2 bc 98 f7 3f bd 5a 5a f7 bd
       -0.024888247 -0.027598573 -0.046866983 -0.1207778
000210 90 11 23 bd 7f 97 83 bd ea da 59 bd d3 3b 32 bd
       -0.03981167 -0.0642538 -0.05318729 -0.043514084
000220 3d 35 92 bd b7 af 86 bd 7e 59 58 bc 86 8c d2 bb
       -0.07139061 -0.06576484 -0.01320493 -0.006425443
000230 d4 5f 9e bd 96 24 91 bd 79 1c d5 bd c9 da 7b 3c
       -0.077331215 -0.07087056 -0.10405821 0.015371987
000240 ea 0e 04 3d 2e b1 1e bd f5 e1 c4 bd f2 38 ba bd
       0.032240786 -0.03874319 -0.096134104 -0.09092893
000250 c6 7e e5 3c 14 26 aa bd de 09 7c 3c f0 b8 1a 3d
       0.028014552 -0.08308044 0.015383212 0.037774026
000260 4b e0 82 3b 96 45 ee 3c f2 9e 90 bd
       0.003994023 0.029085916 -0.070615664

blocks.2.linear.weight f4 [155, 155]
000000 6b d8 6a 3c 82 40 93 bc 78 07 98 bd d1 3b 41 bd
       0.014333825 -0.017975096 -0.074232996 -0.047176186
000010 fe d4 98 3d b0 0b 0d 3d 14 c9 81 bc c6 b3 98 bd
       0.074625 0.034434974 -0.015842952 -0.07456164
000020 ee 93 5e bd eb 59 d3 3b cf 35 88 bd a5 4c 6a 3d
       -0.054340295 0.006449928 -0.06650888 0.057202
000030 d4 d4 ad bd 52 ff 77 3d 22 90 35 3d 07 f4 61 bc
       -0.08487859 0.060546227 0.04432691 -0.013791091
000040 04 bb f0 bc 73 70 5a 3c 74 72 18 bd 2b 5f 15 bd
       -0.029386051 0.013332474 -0.037218526 -0.036467712
000050 ba d1 d3 3c 8a 36 67 3d 90 94 ee 3c 18 83 4f bd
       0.025856841 0.056448497 0.029123574 -0.05066213
000060 57 e4 1e bd c5 5c ad bd a8 13 88 3c 06 2f 9c bc
       -0.03879198 -0.0846496 0.016610935 -0.019065391
000070 48 05 aa bd f0 88 37 3d 33 ca 19 3d d7 4e 87 bd
       -0.083017886 0.04480833 0.037546348 -0.066068344
000080 61 3f 6f 3c 6e 6e 80 3c 2e a1 60 bd 7f a1 83 bd
       0.014602513 0.015677657 -0.054841213 -0.06427287
000090 67 5d 77 bd a9 fe 21 3d ae 1e 7f bd 46 db 87 3c
       -0.06039181 0.039549503 -0.062285118 0.01658405
0000a0 9d d9 a3 b9 81 4e 2a bd b2 be 39 bd 51 57 1d 3c
       -0.00031251917 -0.041578773 -0.045347877 0.009603337
0000b0 cc 34 9b bc d1 34 2e bd bb 02 1b 3d e1 9e 2c bd
       -0.018946074 -0.04253084 0.0378444 -0.042143706
0000c0 c1 eb 93 bd 58 4c 0f bd 3b 48 fe bc a0 3b 92 bc
       -0.07222701 -0.034984916 -0.031040302 -0.017850697
0000d0 c8 09 b5 3c ea dd 3c bd 77 97 82 bb 33 d0 65 3d
       0.02209939 -0.04611007 -0.003985341 0.056106757
0000e0 99 68 fb 3b 19 78 27 bc 42 70 18 bd 50 21 88 3c
       0.007672381 -0.010221505 -0.037216432 0.016617447
0000f0 fb 57 9b bd b9 73 36 3d 9d 22 03 3d 6c 05 4c bb
       -0.0758514 0.044543955 0.03201543 -0.0031131161
000100 05 59 f4 3c 02 39 a1 bc dc 71 9a bd 63 6f c6 3c
       0.029827604 -0.019680504 -0.07541248 0.024223035
000110 f0 85 8a 3c 6b ab 66 bd 2e f2 55 bd d7 30 6a 3d
       0.01690957 -0.05631582 -0.052232914 0.057175484
000120 30 3a 15 bd e0 b9 bf bc b7 b1 4d bc 8d 04 23 3d
       -0.036432445 -0.023404062 -0.012554578 0.03979926
000130 44 95 95 bd eb 2e b7 bb f1 9e 3f bd 32 03 b3 3b
       -0.07303861 -0.00559031 -0.046782438 0.0054630274
000140 15 07 45 bd b2 90 95 bd c7 85 dc bc 1e 85 85 3c
       -0.048102457 -0.07302989 -0.026919259 0.016298827
000150 76 46 5a 3d 09 87 af 3c ab 0e 88 bd b1 84 6c bd
       0.053289853 0.021426694 -0.06643423 -0.057743732
000160 4b d4 ef bc e4 8f 1b bd 50 31 94 3b d9 c8 09 bd
       -0.029276034 -0.03797902 0.00452248 -0.03363881
000170 02 d7 05 bd e3 68 90 bd 0f 6d 4a bc 57 a3 a3 bb
       -0.03267575 -0.070512556 -0.012355103 -0.004993837
000180 aa 58 39 bd 34 0b ca bc 9a d0 6e 3c fd 68 36 3d
       -0.045250572 -0.024663545 0.014576102 0.04453372
000190 3b 49 67 bd 33 41 54 bd 2a 40 23 3d 05 d2 af bc
       -0.056466322 -0.05181999 0.039856113 -0.02146245
0001a0 2f 2b 62 3c 68 88 57 3d ed 20 e4 3c fc 2a 1b 3d
       0.013804241 0.05262032 0.027847731 0.03788279
0001b0 42 f9 4c bc 51 7f 96 bc d1 ff 2d 3d f3 ec 8f bd
       -0.0125106 -0.018371256 0.042480294 -0.07027616
0001c0 e5 c4 18 bc 1f 7c 47 3d 81 d7 c8 3c 29 2c 96 3c
       -0.009324287 0.048702355 0.024516823 0.018331604
0001d0 aa 7f a2 bc 65 33 65 3d ac 93 bc bc db c8 7b 3d
       -0.019836266 0.055957217 -0.023019634 0.061470848
0001e0 9f f9 8e 3d 6a 3c 29 3c 76 0c 63 3d e7 92 1d bd
       0.06981205 0.010329345 0.055431806 -0.038470175
0001f0 77 39 e3 bc 9f 24 78 bb 0c c7 13 3d 19 fa 39 3c
       -0.027737362 -0.0037863625 0.036078498 0.011351132
000200 5d 4e ad bd f6 b4 c8 3a b5 7f b4 bc 9c 8e d5 3c
       -0.08462212 0.001531272 -0.022033552 0.026068978
000210 d5 c5 ea bc 69 b2 2f 3c 06 9c 0a bc c4 95 d0 3c
       -0.028658787 0.010723689 -0.00846005 0.025462039
000220 d6 48 4b bc 23 94 a8 bd ef 63 ea 3b 37 96 5c bd
       -0.012407502 -0.0823138 0.0071530263 -0.053854194
000230 96 c1 4a 3d 79 69 b2 3c 25 d4 17 bd 98 7b 91 bc
       0.049501024 0.021778809 -0.03706755 -0.01775913
000240 5d c2 85 bd 53 fe 5e bd 12 29 70 bc b1 0f c9 3c
       -0.065312125 -0.05444176 -0.014658229 0.024543615
000250 24 6f 28 bd dd 2c 82 bc ca 6f f3 bc 9d d1 1a bd
       -0.041121617 -0.015890533 -0.029716391 -0.03779756
000260 b9 34 2f bd e3 16 7b 3d d7 27 9c bd d0 eb 9b 3c
       -0.04277489 0.061301123 -0.07624786 0.019033343
000270 f7 e9 ce bb 4d 50 3c bd a9 42 a5 3b e4 e5 1b 3d
       -0.006314512 -0.04597502 0.005043347 0.038061038
000280 36 70 fa 3c 06 07 33 bd 99 67 f9 3c 8d 3a 64 bd
       0.030571084 -0.04370787 0.030444907 -0.0557199
000290 84 c3 74 3d 90 8a a7 bb a3 5a 63 bd 2a 70 24 3d
       0.05975677 -0.0051129535 -0.05550636 0.04014603
0002a0 90 27 1e 3d 19 12 87 bd e8 b8 74 bd 82 e0 cb 3b
       0.03861195 -0.06595249 -0.059746653 0.006221832
0002b0 1b d5 98 3c 0c 5b 4f bd 9c 79 70 3c fb 0b 6e bd
       0.018656304 -0.05062394 0.014677431 -0.058116894
0002c0 57 ca 85 3d f6 77 91 3d 63 53 02 bd 12 0f 35 bd
       0.06532734 0.07102959 -0.031817805 -0.044203825
0002d0 12 4f 9f bd 8d f3 cb bc 56 83 11 bb 0c 54 7b 3d
       -0.07778753 -0.024896407 -0.0022203526 0.06135945
0002e0 98 f1 23 3d 97 de 24 bd c5 e4 77 3d 76 86 a5 bd
       0.040025324 -0.04025134 0.060520906 -0.08082287
0002f0 50 6b a8 bd 80 f7 68 bc 52 ea 8b 3c e7 82 33 bc
       -0.08223593 -0.014219165 0.017079506 -0.0109565025
000300 85 12 55 bc d9 a0 fe bc c0 36 5c bc ba 43 4d bd
       -0.013004904 -0.031082558 -0.013440788 -0.050113417
000310 18 60 df bc 95 eb 04 3b 31 04 3b 3c b5 40 8e bd
       -0.0272675 0.002028202 0.0114145735 -0.06945936
000320 d3 31 a6 bd f0 61 66 bd 66 4d 45 bd 86 d3 bd 3c
       -0.08114972 -0.056245744 -0.048169516 0.023172151
000330 05 80 f1 3c 75 b7 25 3c ff 45 61 3d eb b7 8c bd
       0.02947999 0.01011454 0.054998394 -0.06871017
000340 ef f4 8f bd dd 3f a2 3d 5f 15 86 bc 84 25 87 3d
       -0.07029139 0.07922337 -0.016367612 0.065989524
000350 fa 5a 8b bc d8 c4 0e bc 3d 56 f2 3b 10 0f 93 3d
       -0.017011154 -0.008713923 0.0073955343 0.07180607
000360 da dc bd 3c f0 37 a1 bd c1 b5 98 3d 40 f1 51 3b
       0.0231766 -0.07871997 0.07456542 0.0032034665
000370 60 b3 03 3d f3 e5 31 3d 3a ff 2f bd 6d 5e 10 bc
       0.032153487 0.043432187 -0.042968012 -0.008811575
000380 44 36 80 3d 3c aa 92 bd 27 f9 84 3d e2 92 23 3d
       0.0626035 -0.07161376 0.064928345 0.039935
000390 6b 18 63 bd fa 48 7d 3c 9b 05 91 bb 14 c2 0d 3d
       -0.05544321 0.0154592935 -0.004425717 0.034608915
0003a0 c3 b3 5c 3d 48 a5 48 bd 41 59 12 3d b1 aa 73 3d
       0.05388237 -0.04898575 0.03572965 0.059488956
0003b0 eb a6 43 bc b2 91 91 bd 83 67 90 bd d3 38 ae bd
       -0.011941652 -0.07107867 -0.07050993 -0.08506932
0003c0 76 9f 45 3c 3c 9a a2 bb b3 ce 4e 3d 7c 94 8f bd
       0.012061944 -0.004962234 0.050490092 -0.07010743
0003d0 83 9d 16 bd e5 b6 12 bd 46 03 99 3c 2e ca 21 3d
       -0.03677131 -0.035818953 0.018678319 0.039499454
0003e0 7c cb b9 bc 52 a0 84 bd 8a d2 63 3d 5d 1e 85 bb
       -0.022680037 -0.06475891 0.055620708 -0.0040624575
0003f0 1a 5a 3c bd 18 c6 ad bc fa bf c4 bb e4 03 a3 bd
       -0.045984365 -0.021212623 -0.0060043307 -0.079597265

blocks.2.linear.bias f4 [155]
000000 cd 9f 69 bc 3e 12 d2 3c 2c fd cf bc f7 0a 1f bc
       -0.014259291 0.025643464 -0.025389276 -0.009707204
000010 f9 4c d0 bd b3 d3 28 3a 27 29 8c bd ee cd 83 bd
       -0.10170931 0.0006440237 -0.06843787 -0.06435762
000020 df ec a6 bd 78 2e 83 bd 37 3b d9 bc ce 05 6f bd
       -0.08150648 -0.064053476 -0.026517494 -0.058355145
000030 0a f0 4c bd eb f9 c2 bc 10 81 9d 3c 30 9c fe 3b
       -0.050033607 -0.02380081 0.01922658 0.007770084
000040 35 ef b6 bc ff 89 c2 bd 57 fd aa 3c 2f c8 eb bd
       -0.02233086 -0.09498977 0.020872755 -0.11512791
000050 a4 35 63 bc 60 c1 81 bd 49 65 45 3b e0 69 16 3d
       -0.013867769 -0.063357115 0.0030120185 0.036722064
000060 0d 73 6e bd 87 4c 37 bd a3 0d a0 bd ae d5 cf 3a
       -0.05821519 -0.044750717 -0.07815101 0.0015856528
000070 07 30 b4 bc f8 28 ce bd 2c 5a 49 3b 78 72 93 bc
       -0.021995557 -0.10066408 0.0030723913 -0.017998919
000080 6d fc 11 bb 3d 0a c7 bd 1f 93 49 bd 17 99 ac bd
       -0.0022275702 -0.0971875 -0.04921257 -0.08427637
000090 55 dc 29 3d 18 67 d3 bd 70 e0 17 bd 97 a1 bf bd
       0.04146989 -0.10322398 -0.037079275 -0.09356993
0000a0 85 0d cd bd 47 70 e5 bd a6 2f d4 3c cc 0b 8b bd
       -0.10012344 -0.11203056 0.025901627 -0.067893595
0000b0 c7 dd 40 bd 9a 9c 6a 3b 58 92 e1 bd b2 fe e7 3c
       -0.047086503 0.0035798908 -0.11014241 0.02831969
0000c0 e2 4b c1 bd be 28 70 3b c6 ca 90 bc 21 95 9b bd
       -0.094383016 0.0036645378 -0.017674815 -0.075968035
0000d0 0d be fc bd 9f 87 c1 3b 8b 17 e0 bd 03 83 98 bc
       -0.12340937 0.00590606 -0.109419905 -0.018617159
0000e0 4f fc 2a 3d 9b 72 ec bd 3b ce c4 bd 37 02 63 bd
       0.041744526 -0.11545297 -0.09609648 -0.055422034
0000f0 56 c2 1c 3c 12 96 ae bd 21 7a 73 bd 96 37 c2 bb
       0.009567818 -0.085247174 -0.059442643 -0.0059270365
000100 fd 19 ad bd 29 52 2a bc 59 84 07 bd 49 f7 2a bc
       -0.084522225 -0.010395565 -0.0330852 -0.010434934
000110 70 75 f9 bd 5a e3 bd bc a5 e4 c0 bb 00 e5 9b ba
       -0.121806026 -0.023179699 -0.0058866316 -0.0011893809
000120 f9 5a 8f bd a3 ac 04 3d e0 24 af bd e7 61 e8 bd
       -0.069997735 0.0323912 -0.08551955 -0.113467984
000130 f9 1f da 3c 7c 99 3d 3a 97 66 64 bd 1b 4e ed 3b
       0.026626574 0.0007232649 -0.0557619 0.007241977
000140 61 76 a4 bd 48 de b9 bd 4c c6 e1 bd 4c 9c 7f bc
       -0.080303915 -0.090756 -0.1102415 -0.015601229
000150 03 d1 18 3c b7 b3 a5 bd 50 42 8f bd 81 c4 ce bd
       0.009327176 -0.080909185 -0.0699507 -0.10096074
000160 05 45 0b bd 98 ae e0 bd 69 9d b9 bd 4f ad 09 3a
       -0.03400137 -0.10970801 -0.09063227 0.000525196
000170 f8 8d cf 3c 95 2d b4 bd c3 29 08 bc a1 c8 14 bc
       0.02533625 -0.087977566 -0.008310738 -0.009081037
000180 ea a6 fd bc a0 be 13 bd 26 92 c0 bd 48 7f 0c bc
       -0.03096338 -0.036070466 -0.094028756 -0.008575268
000190 69 f1 a0 bd a8 06 b1 bb 67 d8 b9 bd ff 93 de bd
       -0.07858545 -0.005402405 -0.090744786 -0.10868072
0001a0 de c9 36 bd 31 2e 07 bd e4 f3 04 3c 05 7d 75 bd
       -0.04462611 -0.033003036 0.008114789 -0.05993368
0001b0 0f f9 a5 bd 8e 10 30 bd ea 5e 05 be ed 0f e0 3a
       -0.08104145 -0.042984538 -0.13024488 0.001709459
0001c0 04 3f 97 3c 0f de e6 3c 03 43 34 bd 60 07 b6 bc
       0.018462665 0.028182058 -0.04400922 -0.022220314
0001d0 dd 62 53 3d 1f 78 43 bc a3 19 f2 bd 93 a6 a2 bd
       0.051607955 -0.011930495 -0.11821296 -0.07941928
0001e0 1b d8 22 bd d7 45 b5 bd dc 32 2b 3c 66 f7 1c bd
       -0.039756875 -0.088512115 0.010449138 -0.038321875
0001f0 a0 63 ca 3c af 56 5b bc 65 94 c6 3c 6c c6 b9 3b
       0.024705708 -0.013387366 0.024240682 0.0056694057
000200 b6 6a 4e 3c d2 ea 9e 3c 5e 86 da bc f2 94 8a bd
       0.012598684 0.01939908 -0.0266754 -0.0676669
000210 0e 62 b3 bc a5 48 7c bd 3b e8 35 bd a6 5d d9 bd
       -0.021897342 -0.061592717 -0.044410925 -0.10613565
000220 c4 32 ee bd fa aa 7b bd 22 70 7d 3d c9 52 81 bd
       -0.116307765 -0.061442353 0.061874516 -0.06314618
000230 b7 29 d5 bd a1 ce 13 bc 44 37 dc 3c 6f be d0 bd
       -0.10408347 -0.009021432 0.026881821 -0.10192572
000240 27 f4 2c bd a5 7d 18 3d ae df 9e bd 7d 7e 22 3c
       -0.04222503 0.0372292 -0.07757507 0.0099178525
000250 f8 c6 cc bd 16 44 2f 3d 85 5f 59 bd 7a d5 89 bd
       -0.09998888 0.04278954 -0.05306961 -0.067301705
000260 a6 de c3 bd 23 d4 ba 3c b8 c2 f9 3c
       -0.09563951 0.022806233 0.030488357

blocks.3.linear.weight f4 [155, 155]
000000 9f ea 97 3d 76 6e 0f bd 97 30 0d 3d d2 34 97 bd
       0.07417797 -0.035017453 0.034470167 -0.073831216
000010 00 f2 77 bd d8 1b 90 3d 24 b5 d4 3c cf be 61 3c
       -0.060533524 0.07036561 0.02596528 0.0137784025
000020 01 da 47 bd 39 af da bc 7d 17 dc 3b 7d 6d 5d 3d
       -0.04879189 -0.02669488 0.006716667 0.054059494
000030 21 4f f7 bc 47 e0 de bc 4a 6f 1d 3c 82 a6 05 bd
       -0.030189099 -0.027206553 0.009609053 -0.032629497
000040 c4 be 90 3d ea fd be bc 09 6b eb bc ab 3c 36 bc
       0.07067636 -0.023314435 -0.028737562 -0.011122863
000050 c9 e8 7a bd 0e 36 0d 3b 4a 9c c3 3c 5d 5b 12 bd
       -0.061257157 0.0021547112 0.023878235 -0.035731662
000060 cb da 0b bd f3 0a 96 bd 24 e8 45 3c e8 35 c9 bc
       -0.034144204 -0.07326307 0.012079272 -0.024561837
000070 0f ac 40 bd cc 1e 52 bd c3 6f 59 3c d3 66 98 3d
       -0.047039088 -0.0512989 0.013271275 0.07441487
000080 6e da 98 bb 20 67 44 bb 33 19 66 bd 5c cf 75 3d
       -0.0046647107 -0.0029968694 -0.056176376 0.060012206
000090 37 43 4f bd 9b 0a 8a 3a de 66 c9 3c e2 bf 94 3d
       -0.05060121 0.0010531725 0.024585184 0.07263161
0000a0 04 60 5a bd a5 75 f9 3c 19 f4 82 bc 7b aa 55 bb
       -0.053314224 0.030451605 -0.015985535 -0.0032602835
0000b0 68 34 35 bd 40 00 64 3d 93 08 93 3b 73 e8 57 bd
       -0.04423943 0.0556643 0.004487106 -0.052711915
0000c0 25 a6 fa 3c fb e5 0d bd ec e3 31 3c d5 61 a7 3b
       0.030596802 -0.034643155 0.0108575635 0.005108098
0000d0 e8 c3 da 3c 05 2d bc 3c 30 b3 2b 3d e1 19 56 3b
       0.026704744 0.022970686 0.041918933 0.0032669234
0000e0 99 10 7a 3d b3 a0 6e 3d a8 88 be 3a 16 96 8b 3c
       0.061050985 0.058258723 0.0014536576 0.01703934
0000f0 cb da 73 bc 29 c9 2d bc 4d 33 55 bb 61 23 1c 3d
       -0.014883707 -0.010607042 -0.0032531798 0.038119677
000100 33 85 db bb 6d a7 91 bd 8f bb 9b bd 95 d0 9f bd
       -0.006699228 -0.07112012 -0.07604133 -0.07803456
000110 57 4e 7a ba 93 54 98 bd f6 f3 2c bc 75 69 0c bd
       -0.0009548417 -0.07438006 -0.010556212 -0.03428026
000120 5f 2d 30 3d 7a bd 99 bb a6 c4 94 bd bc d0 59 bd
       0.04301202 -0.004691777 -0.0726407 -0.05317758
000130 5e e7 b4 bc 3c 00 2d 3d 52 e7 42 bc 15 db 4b 3a
       -0.02208298 0.04223655 -0.011895971 0.0007776481
000140 44 3c 7f 3d 00 03 39 bd 74 c6 3f bc ba bf 99 bd
       0.062313333 -0.045168877 -0.01170503 -0.07507272
000150 a0 06 d3 3c 14 18 8c bd 43 f8 5d bd 60 22 76 3c
       0.025759995 -0.0684053 -0.05419184 0.015022844
000160 03 f8 47 bd 59 ea 08 3d bc ef 51 3a 97 20 56 bc
       -0.048820507 0.033426616 0.00080084405 -0.013069293
000170 95 60 63 bd 17 7d 39 bd d1 f7 84 3d 2e 59 5e bd
       -0.05551203 -0.04528531 0.0649258 -0.054284267
000180 1f af 70 3d b6 bf 96 bd 13 58 4a 3d 73 53 d2 3b
       0.05876076 -0.07360785 0.0494004 0.0064186393
000190 7a f5 f5 bc 2e 45 19 bd 94 40 c3 3c 14 8e f4 bc
       -0.030024279 -0.03741949 0.023834504 -0.029852904
0001a0 2d d7 77 bd a1 28 7f bd c3 d8 99 bc b4 94 66 39
       -0.060507942 -0.062294606 -0.018780118 0.00021989906
0001b0 49 74 56 3c fa 75 9b bd b7 c5 eb 3c 03 bc 89 3d
       0.013089248 -0.075908616 0.028780801 0.067253135
0001c0 1b 18 41 3d 12 c6 1b 3d 07 04 03 bd f1 68 d9 3c
       0.04714213 0.03803069 -0.031986263 0.026539298
0001d0 df 78 7e bc 26 e9 3e 3d c4 ac 9a bd f1 81 25 3d
       -0.015531748 0.046609066 -0.07552484 0.040407125
0001e0 d3 37 a4 bd 14 bb 14 bd c1 ea 10 3d 8c ef 5b 3d
       -0.0801846 -0.036311224 0.03538013 0.053695247
0001f0 36 96 6c 3c aa 31 bf 3b a4 8b d0 3c 26 19 8e bd
       0.01444011 0.005834778 0.02545721 -0.069383904
000200 3f 2d 15 bd 3d 1f 9f bc 60 03 78 bd cf 63 c1 bb
       -0.036420103 -0.019424075 -0.060550094 -0.0059017907
000210 43 6a 87 3d 97 73 5d bb 83 cb 58 ba 2f c6 0a bd
       0.06612065 -0.003379082 -0.00082700717 -0.03388041
000220 06 a2 34 bd 6c 68 03 bd 10 8b 7d 3d 5b 1a 31 3b
       -0.04409983 -0.032082006 0.0619002 0.0027023766
000230 0b 86 9e bb f1 8b d1 bb c9 3b a8 3b 19 ac 01 3d
       -0.0048377565 -0.006394856 0.00513408 0.031658266
000240 03 14 a7 3c cc 98 09 bc 0c ad 22 bd 61 e0 8d bd
       0.020395285 -0.008398246 -0.03971581 -0.069275625
000250 6e 57 b1 bc d7 9f 83 bd d6 ea fe 3b 46 7d 91 bd
       -0.021648135 -0.064269714 0.0077794595 -0.07103972
000260 7d da 1a bd 76 cb 36 bd a8 4e 12 3d 0c d5 40 3c
       -0.037806023 -0.04462763 0.035719544 0.011769544
000270 a8 25 67 3d 83 79 87 bd ef 1f 12 bd da 24 3f bd
       0.056432396 -0.066149734 -0.035674985 -0.046666004
000280 c7 89 84 bd d1 e0 87 3d fb ee 88 3d bb 76 8f 3d
       -0.064715914 0.06634677 0.06686207 0.07005068
000290 6c 7b 87 3d b7 df 95 bb e8 64 8a bd 75 c5 e4 3c
       0.06615338 -0.004573788 -0.067575276 0.027926186
0002a0 1b ee 90 3d 83 12 39 3d de cb 60 3d 52 66 1a 3d
       0.07076665 0.04518367 0.054881923 0.037695237
0002b0 63 3c 6e bd 2d 51 f7 3c 06 82 5b 3d d4 0c 6a bc
       -0.058163058 0.030190075 0.053590797 -0.014285285
0002c0 b9 1a b4 bc b1 40 73 3c ed 21 89 3d 30 f5 82 3c
       -0.021985399 0.014846967 0.06695924 0.015986055
0002d0 78 3b 22 bd d8 1c 05 3d 12 e7 55 3d f2 3e 38 bd
       -0.039607495 0.03249821 0.05222232 -0.044981904
0002e0 79 ec 56 3d 7c b7 ff bc fb f3 b9 bb 25 aa b7 ba
       0.05247161 -0.031215422 -0.0056748367 -0.0014012499
0002f0 6f 8e 60 bd 74 81 81 bc 93 f8 31 bd 72 30 89 3d
       -0.054823335 -0.015808798 -0.04344995 0.06698693
000300 25 4e 65 3d 20 93 03 bc c4 20 4c bd f4 dd 7c bd
       0.055982728 -0.008030683 -0.049835935 -0.06173511
000310 2a 5b e9 3c fa 54 b1 3c f2 d4 2e bd b2 bf 5f bd
       0.028485853 0.021646965 -0.04268355 -0.054626174
000320 01 62 6c 3b 46 53 28 bd 25 91 78 3d 98 a9 f3 3c
       0.0036069157 -0.04109504 0.060685296 0.029743955
000330 7d 16 6d bd 31 b8 b2 bd 11 10 c9 bc af 92 53 3d
       -0.057882775 -0.08726538 -0.024543794 0.05165356
000340 86 69 19 ba d5 52 b6 3c 88 8a 36 bd 75 fa a3 bd
       -0.0005852211 0.022256294 -0.044565707 -0.08006755
000350 e2 45 38 3d 94 ad 24 bc 14 35 25 3c e8 16 3b 3c
       0.04498852 -0.01005115 0.010083456 0.0114190355
000360 5b a7 82 3d 97 e2 9f bd 02 9e 0a 3d 31 6b 50 bd
       0.06379577 -0.078068905 0.033842094 -0.050883476
000370 a0 7a 8e bd 60 b6 9a 3d 73 54 87 bd 0f 0d f8 bb
       -0.069569826 0.075543165 -0.06607904 -0.007569916
000380 da ec 7b 3d 5a 42 b6 bd 53 d3 71 bd d3 69 3b 3d
       0.061505176 -0.08899374 -0.059039425 0.04575522
000390 21 50 7d 3c 6c 2e 58 3b 71 ba 95 bd cc 6c 7a 3d
       0.015460999 0.0032986654 -0.073109515 0.061138913
0003a0 98 5b 3b bb 2d 2e 76 ba 87 d7 55 bd ac f4 7e 3d
       -0.002858853 -0.0009391036 -0.052207496 0.062245056
0003b0 a7 5b 5d 3d 70 d3 7f 3d fc 39 de bb 0b 65 03 3a
       0.054042485 0.062457502 -0.0067818146 0.000501231
0003c0 e6 24 bb bc 66 8b a4 bc 3c c4 8e bd 6c a5 31 3d
       -0.022844743 -0.020086002 -0.069710225 0.04337065
0003d0 72 36 07 bc 16 56 b6 bc 96 03 c5 bc 14 11 84 3d
       -0.008252727 -0.022257846 -0.024049561 0.0644857
0003e0 8a 15 8c bd de 4e 53 3d 41 40 63 3d 66 11 5f bd
       -0.06840046 0.051588885 0.0554812 -0.05445995
0003f0 98 ed 28 3c 94 4a 2a bd 9c 28 b1 3c 74 64 c0 bb
       0.010310553 -0.04157503 0.02162581 -0.00587135

blocks.3.linear.bias f4 [155]
000000 02 7f 9e bc e8 3b ed 3b 26 27 23 3c fb bf 96 bd
       -0.019347671 0.0072398074 0.009958064 -0.07360836
000010 c3 f5 e5 39 d8 52 33 bd 04 2b 59 bd 47 3f 3f bd
       0.0004386139 -0.043780178 -0.05301954 -0.046691205
000020 f5 ef b7 bd 04 ba ba 3c 11 c9 1b bd e0 38 da bd
       -0.08981315 0.022793777 -0.03803355 -0.10655379
000030 be 9b 4e bd 6d ce 0e be c4 f3 b8 bd 4a 4c ed bc
       -0.050441496 -0.13945933 -0.090308696 -0.028967042
000040 b6 b6 1f be d8 6c e8 bd f3 b4 1d bd 11 8f eb bd
       -0.15597042 -0.11348885 -0.038502645 -0.11501897
000050 f6 c3 28 bd 96 33 e2 bd 97 7f 92 bd 86 a2 40 bd
       -0.041202508 -0.110449955 -0.07153242 -0.047029994
000060 83 b2 b4 bd 6e 81 84 bd f0 44 cc bc c0 78 05 bd
       -0.08823111 -0.06469999 -0.024935216 -0.03258586
000070 71 f4 6a 3c 11 9b cf bd e7 e5 37 be 1a 21 b6 bd
       0.014340506 -0.101369984 -0.17958795 -0.08893032
000080 b5 47 84 bd dd 3c 1f bd 62 a3 86 bd b2 e8 54 3c
       -0.064589895 -0.038876403 -0.065741315 0.012994932
000090 a2 60 b5 bc 0c 42 d1 bb 23 15 ec 3c 7c 16 2a be
       -0.022140805 -0.006386047 0.028818673 -0.1661014
0000a0 5f 2c 6d bd 69 ba fe bc 10 46 e8 bd 43 2a 7a bc
       -0.057903644 -0.031094747 -0.11341488 -0.015268865
0000b0 c5 8c d4 bd 6d be ae bd a9 1e ad 3c 19 38 06 bd
       -0.10378412 -0.085324146 0.021132784 -0.032768343
0000c0 22 de e6 3c e2 db 04 3d 63 14 87 bd 01 0b 1e bd
       0.028182093 0.03243626 -0.06595685 -0.038584713
0000d0 92 c5 75 bd 90 f6 60 bd 37 9c 2a bd 90 31 39 bd
       -0.06000287 -0.05492264 -0.041652884 -0.045213282
0000e0 40 c0 3e bd 48 67 c5 bd 7b 07 89 3c 2d 85 8c bd
       -0.046570063 -0.0963884 0.0167272 -0.06861339
0000f0 68 2f 23 bd eb 24 df bd 44 1e 38 bd 1e e7 d3 bd
       -0.039840132 -0.108957134 -0.04495074 -0.103468165
000100 f2 d1 c7 bd 0b 6d 00 be 04 01 03 3c c0 d9 a5 bd
       -0.09756841 -0.12541597 0.007995848 -0.08098173
000110 42 b2 1b be ac 41 a1 bd 93 19 45 3c 61 69 47 bd
       -0.15204719 -0.07873854 0.012030023 -0.04868448
000120 39 cc b5 bc cb d3 12 bd 8f f8 00 3b 7a 17 8d bd
       -0.022192108 -0.035846513 0.0019679402 -0.068892434
000130 7e 5c 18 bd 2d 9e 42 bc 46 30 1b bb 5c 1f fe bd
       -0.037197582 -0.011878532 -0.0023679896 -0.12408325
000140 e3 f4 a2 bd cb 7d f6 bd 6b f9 35 bd c7 58 79 bd
       -0.07956865 -0.12035712 -0.044427317 -0.06087568
000150 99 55 11 be 41 85 62 bb e5 9d c5 bc 7c 06 8e b9
       -0.14192809 -0.0034564289 -0.024123142 -0.00027089182
000160 0e 5b 91 bd 18 e1 08 be 00 6d a5 bd ef ed c2 bb
       -0.070974454 -0.13367116 -0.08077431 -0.005948774
000170 82 1a ad bd 07 62 38 bd 77 fa 5e bd 32 c2 83 ba
       -0.084523216 -0.04501536 -0.05443808 -0.0010052382
000180 00 25 f4 bd 47 0d ca 3c dc 5b 25 3a 62 31 ca bd
       -0.1192112 0.024664534 0.00063079386 -0.098727
000190 58 92 8c 3b 47 e8 ca bd fd 19 8b bd b4 ff 9c bd
       0.0042899065 -0.09907585 -0.06792066 -0.07665959
0001a0 9b 00 0b be 6a 93 7c bd 81 4b 29 3b f8 a3 79 3d
       -0.1357445 -0.061664023 0.0025832357 0.06094739
0001b0 ab 25 9c bd b9 ba a8 bc 02 be 0f be 4d 5c 37 3d
       -0.07624372 -0.020596849 -0.14037326 0.04476576
0001c0 d8 a4 0f be b3 b5 ae bd e5 36 2a bc 74 69 8d bd
       -0.14027727 -0.0853075 -0.010389064 -0.06904879
0001d0 c2 89 30 bd 56 e9 ec bc 08 c1 a8 bd 76 6e ae bd
       -0.043100126 -0.028919857 -0.08239943 -0.085171625
0001e0 0b 48 88 3d 6c ba 68 bc 7f ef dd ba fd a2 4c bd
       0.06654366 -0.014204603 -0.0016932337 -0.049960125
0001f0 98 91 51 bc d9 90 ae bd 05 ed 92 bd 8a 4a fe 3c
       -0.01279106 -0.08523721 -0.07174114 0.031041402
000200 93 c1 90 bd 2f 13 40 3d 02 01 e0 bd ca 5a ce bc
       -0.07068171 0.046893295 -0.10937692 -0.025189776
000210 d4 0e b2 bd c4 21 13 bd 78 3d 6b 3d 39 d8 1c be
       -0.086942345 -0.035920873 0.057431668 -0.15316857
000220 4a 0b 59 bd 9a d9 b7 bd e6 e0 d4 bd 12 75 18 bd
       -0.05298928 -0.08977051 -0.103944585 -0.037221022
000230 e1 58 8b bd a2 90 d3 bd 44 3d 8d bd e0 1e 80 bd
       -0.06804062 -0.10330321 -0.06896451 -0.06255889
000240 a5 3f 07 3b 92 ce 27 be 4e 3f 65 bc 52 fc bc bd
       0.00206373 -0.16387394 -0.013992144 -0.09227814
000250 50 a4 c4 bd c0 45 a1 bc 1d 22 82 bc a9 9c 0c be
       -0.096016526 -0.01968658 -0.015885407 -0.13731636
000260 95 89 23 bc ec 7e 52 3d df 6a 69 bd
       -0.009981533 0.051390573 -0.056986686
