ONLY NUMERICAL FEATURES/CLASSIFICATION/ACCURACY/checkpoint.pt (torch, 301410 bytes, 9 tensors)

blocks.0.linear.weight f4 [155, 10]
00000000: 6e86 75bc 48b7 1b3a ea65 f3ba f4c2 9b3d
00000010: a1c9 30be e246 30bd 8185 9d3d 057c 923e
00000020: d69a 2a3a 8300 c0bd 48f6 22bc efda 98bd
00000030: 0729 c93d 6f6a 483c f890 af3d 41e9 883e
00000040: 9c4a 27be 8885 4ebd d76c 3f3d 1b22 0fbd
00000050: ebfe 0ab9 866c 98bc a2dd 8dbc 94b9 9fbc
00000060: bade c9bc 67df afbc ec17 45bc a1c2 a0bc
00000070: 8971 b3bc 98b4 333b a214 1f3e eceb 343e
00000080: 74cd 073e f06d b53d b2e9 d43d 76b8 59be
00000090: 042f 853e 1a36 59bd 126c 813e 4d57 823d
000000a0: 4d36 913e be93 913e 4534 62bd d4c4 abbd
000000b0: 8068 943d d1f5 0a3c ba87 853d 651e 3d3e
000000c0: c247 72be f3f8 563c 5e19 78be 0587 9c3e
000000d0: 0b20 20bc 59ea 6f3d 529f 9cbd e34c 373e
000000e0: a8bf 54bc 2b63 9ebc 4500 333c 1751 903e
000000f0: 0b24 82be 16ba a8be b02d 1a3c 9380 a13d
00000100: c7ea 333d 004b 883e 2a9f 073e e9e2 2fbe
00000110: f164 65be f6c3 643e ebf2 993e a357 1bbe
00000120: d783 f6bb c096 e03d dac2 6bbe 9b3d 9cbd
00000130: e704 d0bc ee02 2f3d 01b1 c1ba 06a2 37be
00000140: d148 81be f7a3 2cbe 92f9 e33d eb80 ddbc
00000150: 7e0b 5b3e 7a1b 2dbe 964f fcbd 4bad 833e
00000160: e1b7 a3be 4b8a 32be ae41 48be b530 a13e
00000170: ad64 953b d4cb b1bd 342b dbbd 98d9 e13d
00000180: cd99 ebbd 9182 af3d 5488 86bb 062a 33be
00000190: 6578 eebb 7b71 373e 14e5 883c 99bd 8e3d
000001a0: 20d9 39be d8b0 233e c676 cf3d f0d9 e33d
000001b0: a1b4 b7ba c2dc 24bd 8b7f c83d 7e9f 983d
000001c0: ab31 293e ddd8 75be 0df5 173e f4a8 33be
000001d0: cf02 44bd 328f 4ebe d001 edbd b985 2b3e
000001e0: 48ff 593e 74e2 533d b897 8dbe bf7a 1bbe
000001f0: 41aa 293e 3abc 10be 7c5d 9bbe bf80 9a3c
00000200: e6a7 9cbe ce25 52bd 40d3 4db9 8fa1 0937
00000210: 8165 2eba 04c5 89b9 fdbc d2bb 8155 06bc
00000220: e82c b13a 64d1 a03c 83bf 64bc 339d b6bc
00000230: b122 14be be2f a53e 7aee 953e f6eb 9abe
00000240: cf6c c73d 84cc 7a3d cbb8 943e 8622 acbd
00000250: d2ab e83d ae35 10be a14e 98be 90b5 d33c
00000260: 5b72 67bb 53c3 a5bc 2693 69bd 7998 85be
00000270: d53b 313e 6034 183c 1754 4a3c 8b84 103d
00000280: 1cca b6bc 6d63 65bc 293d 20b9 9c13 1db9
00000290: 349f a3bc e4a9 e13b 477d 3cbc 654b e0b7
000002a0: 6e07 bcbc a874 783a e26a 5dbd 4982 293e
000002b0: 9cc1 e03b bee1 9abe 3c98 7a3e ac32 a7be
000002c0: 4394 e03d ac1e 8bbe f016 0f3e 75c0 e83c
000002d0: 5920 953d 2b57 bcbd a41f a63c d0c7 943e
000002e0: e47e dbbc 4043 f0bd 2a5e 363d 1cb4 333e
000002f0: 4c61 af3c 536a 833e 7648 cc3d fd5f 53bc
00000300: d4ef 8abe d2da 92be e92d 2b3e 4ec7 abbe
00000310: cc88 3cbd 6faa 533e 8ab0 9dbe baa8 87be
00000320: 31d4 9cbe 4cd6 2c3e 4062 0c3a 3a3c 3e3e
00000330: 86ad f9bc 2a61 c5bd 4786 6f3e cc3e 3cbe
00000340: 01b1 f8bb 25ac 543e 7959 ac3c f323 87bb
00000350: 619b bdbc 718a 5b38 5f86 d9b6 2e4b 8d3a
00000360: 1f2d 983b a88e 2e39 0357 fdbb 81df acb8
00000370: 0376 193e 5059 803d 2ebc 14bc 3fe1 b1bc
00000380: d1d8 4fbd da1f 04be 0700 2d3e 924d f63d
00000390: 23b2 853c 42fb 853e a649 89bd f83f 9ebe
000003a0: 0afe 8a3d 74b4 143e 8137 093e 4cba 0f3e
000003b0: fb5a 0d3e 2b26 953c 25b1 25bb c907 ec3d
000003c0: ddc4 a5be dfe3 193e 5c15 733a 6ecd aa3d
000003d0: a66e c1bd e109 b23d 629d 953d aca9 99be
000003e0: f4f5 56bb 8909 1c3e 2de7 5abe c0f4 e7bd
000003f0: 4895 bd3b 95ac 203e 0863 69be 0449 093e
-0.014985664 0.0005940092 -0.0018569801 0.07605544 -0.17264415 -0.04303635 0.076914795 0.28610244
0.00065080577 -0.093750976 -0.009946413 -0.07463633 0.098222785 0.012232407 0.085725725 0.2674046
-0.16337055 -0.050420314 0.046734657 -0.034944635 -0.0001325567 -0.018606436 -0.017317597 -0.01949767
-0.024642337 -0.021468831 -0.012029629 -0.019624056 -0.021904724 0.0027420875 0.15535215 0.17668122
0.13261968 0.088588595 0.10396136 -0.21261773 0.26012433 -0.05303011 0.25277764 0.063643076
0.2836174 0.2843303 -0.05522563 -0.08387151 0.07246494 0.008481459 0.065200284 0.18468626
-0.23660186 0.013120878 -0.24228427 0.30571762 -0.009773265 0.0585731 -0.076475754 0.17900424
-0.012985148 -0.019334396 0.010925357 0.28186867 -0.25418124 -0.32954472 0.009410307 0.07885852
0.043925073 0.2661972 0.1324431 -0.17176403 -0.22401787 0.22340378 0.30068144 -0.1517015
-0.0075230408 0.10966253 -0.23023549 -0.07628938 -0.025392963 0.042727403 -0.0014777483 -0.17932901
-0.25250867 -0.16859423 0.11131586 -0.027039012 0.21391103 -0.16905013 -0.12319867 0.2571815
-0.31976226 -0.17435567 -0.19556305 0.31482473 0.0045591206 -0.08681455 -0.107016 0.11027831
-0.115039445 0.085698254 -0.004105607 -0.174965 -0.0072775357 0.17914383 0.016710795 0.06969757
-0.18149233 0.1598543 0.10130076 0.11125553 -0.0014015624 -0.040249594 0.09789952 0.07452296
0.16522853 -0.24008508 0.14839573 -0.17544919 -0.04785424 -0.20171812 -0.11572611 0.1675023
0.21288788 0.051729634 -0.27654815 -0.15183543 0.16568853 -0.14134303 -0.3034476 0.018860219
-0.30596846 -0.051305585 -0.0001962902 8.203452e-06 -0.00066526985 -0.00026277464 -0.0064312206 -0.008199097
0.0013517411 0.019631095 -0.013961676 -0.022291755 -0.14466359 0.32262987 0.29283506 -0.3025815
0.097375505 0.061230198 0.29047236 -0.08405022 0.11360897 -0.14082977 -0.2974749 0.025843412
-0.0035315964 -0.02023474 -0.057025097 -0.2609289 0.1730798 0.009289831 0.01234915 0.035282653
-0.02231317 -0.014000756 -0.00015281573 -0.00014979992 -0.019973375 0.0068867076 -0.011504478 -2.673799e-05
-0.022952762 0.00094778324 -0.05405701 0.16553606 0.0068590175 -0.30250353 0.24472135 -0.32655847
0.10965779 -0.27171838 0.13973594 0.028412083 0.072815605 -0.091963135 0.02027876 0.29058695
-0.026793905 -0.11731577 0.044523396 0.17549175 0.0214087 0.25667056 0.09974758 -0.012901303
-0.271361 -0.28682572 0.16716732 -0.33550495 -0.046028897 0.20670484 -0.3079875 -0.26495916
-0.3063064 0.16878623 0.00053552166 0.18577662 -0.03047825 -0.09637673 0.23391066 -0.1838333
-0.00758946 0.20768793 0.021038758 -0.0041241585 -0.02314538 5.2342602e-05 -6.482747e-06 0.0010779852
0.0046440507 0.00016647077 -0.00773132 -8.24323e-05 0.14986424 0.06267035 -0.009078069 -0.021713851
-0.05074388 -0.12902775 0.16894542 0.12026514 0.016320294 0.26168257 -0.067035004 -0.3090818
0.06786735 0.14521962 0.1340008 0.1403591 0.13804238 0.018206676 -0.0025282588 0.115249224
-0.32376757 0.15028332 0.0009272897 0.08339964 -0.09444933 0.086932905 0.07305409 -0.30012262
-0.0032800408 0.15238012 -0.21377249 -0.11325979 0.005785618 0.15690835 -0.22791684 0.1340676

blocks.0.linear.bias f4 [155]
00000000: 3fd5 1a3e 1bb1 2cbd 700b ae3c 1a10 0d3e
00000010: b091 b63c 8e21 9ebe d8e4 bdbd bb6c 3c3e
00000020: d184 a0be 2157 843e 4050 45be 8edd b9be
00000030: 770b 303e 5d2a 16ba 56b3 5dbe 0e11 52be
00000040: 9330 be3c 06bf dbbd 00e3 96be aa1f 95bc
00000050: 7090 e53d d9fb 97bc cb83 9b3e 0c50 afbe
00000060: 1574 35be f07f 68be 47c0 b93b 0e51 033e
00000070: a611 aebe 7c4c 113e 27cb 453e 8a53 953d
00000080: 6e4a 8d3d 6ee8 47be be74 963d 1f30 dfbc
00000090: 1b1f 823d 3852 17bd 4ff3 6f3e d07a 1c3e
000000a0: dddd f8bc f386 bfbd 19a9 81be e10e cb3d
000000b0: bf46 543e 455f d03a 4417 96be 5e0b 86bb
000000c0: af1b b33d 01a8 5b3a 84f6 8ebd 7552 b3be
000000d0: e167 3239 fbc4 e53d a54a a83d f33a fb3b
000000e0: c0d6 23be 7990 323e d3ef 9dbe 5a81 05ba
000000f0: c7c2 b5bd 3ba1 353e 92ae f1bd db3c dbbd
00000100: 7288 613e 7a6d 1d3e 4b3d e83d a48c af3d
00000110: 6d9e 393e f65d 273e e3bb debc 0fbd 913c
00000120: 0d84 163e 58b5 213e 3df9 3b3d 8a58 653d
00000130: 292f 28be babc 81be 74d2 d83c 6a72 c8ba
00000140: 4cf1 5bbe ca1e 583d fecf 853e 812d 713e
00000150: befb 1cbe 5ed6 133e 1319 803e 5713 a2be
00000160: ce16 6a3e c484 5fbe 7315 383c dd5f 223c
00000170: 8f44 603e 0982 cd3b d06f 8c3d 9fbf a73d
00000180: a283 4a3e 8af5 32be fce8 2ebc e95b 8cbe
00000190: 5fd8 87bd 3aa7 93bc 725e 113e b7a6 b63d
000001a0: af81 633e d7a5 92be 81c4 87bd 8d57 9d3d
000001b0: 6fd0 883e d780 513e 87ca 693e 243a 593e
000001c0: eb8f 4fbc c20c 903e 28da 5b3e e31a b738
000001d0: bc19 8bbc 8626 01bd 5efa 873e cdcc 75be
000001e0: 6c94 b43c d386 2b3d e8a9 6fbe 6fc0 ac3c
000001f0: e91e 2bbe 6671 943d a881 1a3e 69e2 783e
00000200: d10c 6d3e 9b99 a8be 1fbe 58be ef7a c73d
00000210: 6864 59bd 820c 743e c9a0 9bbe 00c8 e739
00000220: a695 343d 368b 063b 145d 5c3e 111c a4be
00000230: f738 2b3e fe18 2d3a 9829 6ebe 632b aeb9
00000240: 4423 96be 516b 63bb c313 9cbc 8c27 0abe
00000250: afec b5bc 6f9d b4b8 7187 4b3e c873 9c3d
00000260: ff3e 3dbe a91d c3bc 4507 12be
0.1512041 -0.04216109 0.021245688 0.13775674 0.022286266 -0.30884975 -0.09272164 0.18400852
-0.3135133 0.25847724 -0.19268894 -0.36301845 0.17191873 -0.00057283585 -0.21650442 -0.20514318
0.023216521 -0.10729794 -0.29470062 -0.018203575 0.1120919 -0.018552708 0.30373988 -0.34240758
-0.17720063 -0.22705054 0.005668673 0.12823889 -0.3399784 0.14189333 0.19315778 0.072913244
0.06898962 -0.19522259 0.073464856 -0.027244626 0.06353589 -0.036943644 0.23432659 0.15281224
-0.03037923 -0.093519114 -0.25324324 0.09914947 0.20730112 0.0015897533 -0.29314625 -0.0040907105
0.087455146 0.00083792215 -0.06980613 -0.35023847 0.00017014101 0.11219212 0.08217362 0.0076669394
-0.1599989 0.17437924 -0.30847034 -0.0005092822 -0.088750415 0.17737286 -0.11800875 -0.10704967
0.22024706 0.15373793 0.11339816 0.08571747 0.18126841 0.16344437 -0.0271892 0.017790345
0.14698811 0.15791833 0.04589199 0.05599264 -0.1642424 -0.253393 0.02646754 -0.0015292887
-0.21478766 0.052763738 0.26135248 0.23552515 -0.15330407 0.14437243 0.2501913 -0.3165538
0.22860262 -0.2182799 0.011235583 0.009910551 0.21901153 0.006271605 0.06857264 0.08190846
0.19776776 -0.17476478 -0.010675665 -0.27413872 -0.066330664 -0.018024076 0.14196184 0.08918517
0.22217439 -0.2864215 -0.06629277 0.076827146 0.26721522 0.20459305 0.22831164 0.21213585
-0.01266859 0.28134733 0.21469939 8.731128e-05 -0.016980045 -0.03153088 0.26558203 -0.24003907
0.02204343 0.041876625 -0.23404658 0.021087853 -0.1671101 0.072481915 0.15088522 0.24305119
0.2314942 -0.32929692 -0.21166275 0.097402446 -0.05307427 0.23832896 -0.30396107 0.00044208765
0.04408803 0.0020529754 0.21519881 -0.32052663 0.16720949 0.00066031504 -0.23258054 -0.00033220192
-0.2932378 -0.0034701417 -0.019052392 -0.13491648 -0.022207586 -8.612393e-05 0.19875886 0.07639271
-0.18481062 -0.023817854 -0.14260586

blocks.1.linear.weight f4 [155, 155]
00000000: 79c0 dabc e328 2f3d 3baf 6e39 aaf8 a13b
00000010: cd31 4abd 8d16 ca39 c9f6 7b3d f432 51bd
00000020: 6798 bcbc 7af4 0d3d 8efb 4a3d 6564 403d
00000030: 5864 343c 72cf 463a 5b66 85bd 34df a8ba
00000040: 6c92 2eba 46b0 96bc 6486 ec3c d453 c03c
00000050: eebf 093c 443e c1b9 5355 9b3d add6 e839
00000060: 4192 2abd 6973 823d ea01 1437 050c 4ebc
00000070: ffff ab3c 8a5d 18bd 549f 753d fd16 0c3d
00000080: bf39 563c 83cd 06bd 6534 c6bb e6f8 493d
00000090: 57b3 393d d1e9 8ebc 0a6e 9f3b 38b2 bcbd
000000a0: b173 b5bd 685e 07bd a91e 283c 001c 89bc
000000b0: 6eed 343a e956 d539 0c40 783d 60f9 a93c
000000c0: 93d2 63bb 8ae0 ddb8 84bd e93c edcc adbd
000000d0: d9b5 9bb8 649a 65bd 3067 46bd c878 cab9
000000e0: 85b9 8a3c 4ab1 23bc 3ace 073d e5e2 cd39
000000f0: ed87 8dbd 5357 55bc b810 68bd 3991 b2bd
00000100: acae 7bbd 0e7e 96bd 8146 d9bb c4e0 0c3c
00000110: a2a0 063d f366 2d3d 4967 b13c 75a0 243a
00000120: 4e03 343d 6e93 d83c 29e4 56bc f1e4 a8bd
00000130: f378 7f3d 59c4 8cbd 6f34 82bb 2e3a 233a
00000140: dff0 8bbb ece9 05bd bb1f 15bd 7760 423d
00000150: 1606 9abd 4095 bcbc d752 c4bd c861 d63c
00000160: d81d c2bb b734 4fbd 32c4 a0bd 21bc 3b3d
00000170: e2ef cc3c 3137 2439 e42f 83bd 9830 dabc
00000180: 9c67 13bd 46b5 833c e1fe 7a3c a388 2f3c
00000190: 6171 153d e5f3 36bd 0454 2b3c 3c23 103c
000001a0: e897 aabc 3464 0abd 5462 903c 7a58 86bd
000001b0: 6ef5 363d b5d1 b03c 8a88 383d ee6a 4fbd
000001c0: 2651 21bd 1748 603b 9520 7abd 04b4 8038
000001d0: d690 68b9 b2a9 c33a 92e7 8bbb bfe9 933c
000001e0: 9d58 b73b 04b8 cb3b f814 9ebd 46b6 fb3c
000001f0: a6f6 3fbd 2048 b4bd 4e59 e33c 3d63 293d
00000200: 7b9c 4abb 58ea d6bc cc8c 05bd 4194 b33c
00000210: beb5 45bc 6aa5 78bd f85d 913d 16fc 443c
00000220: b7d8 78bd 03f1 7e39 dd29 20bd 97cb 003d
00000230: 9c1d ec3b de15 7139 b8db bb3c ebff 0e3a
00000240: 2c31 09bc 9c85 1f3c ad88 2dbd ef42 2ebd
00000250: 83c8 eab8 facb 80b9 5be1 90bd f627 193d
00000260: 8be6 163c d14c 203d 927c 423d fd19 353d
00000270: bef4 013d d367 3eb9 f2a5 bfbc 1835 f33b
00000280: 1da5 04bd f3ee ff3c 2a3a 843c b5d5 7abd
00000290: 98c7 6bbb 84e4 143d 422a 203d a3a4 573d
000002a0: 33c2 80b7 8ce6 a0bc 87c9 843c 9a2e 13b9
000002b0: f4cc 95bc 2c69 54bc a502 79bb 1267 dcbb
000002c0: 1b35 9d39 1862 a6bc f10b 4d3b a8d1 5bbb
000002d0: f503 de3c be45 e833 df93 c1bd 33a7 72bb
000002e0: 23c9 0c3d 9e3b 13bd 6745 b0bd 4720 92ba
000002f0: d432 703d d854 bc3c cca0 88bb 3628 aebd
00000300: 401a 87bc fc1f 59bd 99e0 3d3d 7d2e adbd
00000310: 84af 433c 9a6b 25bd 244e 193d ca37 8eb9
00000320: 5548 4838 832a 8f3d 9f76 af3c 5600 c63c
00000330: a96a 3c3a c72f b6bc c990 84bd c1b0 75b9
00000340: bdcc e83c 8247 f0bc 655a ca37 84cc cebb
00000350: 988e 40bd fe9d c5bc 5593 b8b9 88f8 2ebd
00000360: 8dc0 07bd 5aac 1f3d f6dc 97bd 947e 84bd
00000370: 5942 a8bc a798 e2bc 23cc 18bd 0178 7c3d
00000380: ddab b1ba 6e47 ac3b 93ca 89b7 6639 adbb
00000390: 149e 84bd 8a3c 8dbc 0bc0 453d 4805 273d
000003a0: 0774 05bc eb44 89bd c5d9 7138 5e45 54bd
000003b0: b032 ae3c efc0 0ebc d161 713d 0b65 14bd
000003c0: 3a93 dbbb fb2d f8bc 8904 853b 97d1 acbc
000003d0: 0c99 91bd c573 1bbd 184d 593c 2cd7 663c
000003e0: 5111 d438 400a 343d 61d6 9dbc 677f 8ebd
000003f0: 8b45 013d 60d5 7fbc 353a 79bd 5eb6 91bd
-0.026703106 0.042763602 0.00022762727 0.004942973 -0.0493639 0.00038545244 0.06151465 -0.051073983
-0.02302189 0.03465698 0.049556307 0.046970744 0.011010252 0.00075840123 -0.065136634 -0.0012883903
-0.0006659392 -0.0183946 0.028872676 0.023477472 0.008407576 -0.0003685822 0.07584634 0.00044410434
-0.041643385 0.06369669 8.821933e-06 -0.012576108 0.020996092 -0.03719858 0.0599664 0.03420161
0.013075291 -0.032910835 -0.0060487264 0.049309634 0.045337047 -0.017445477 0.0048654126 -0.0921368
-0.08859957 -0.033049017 0.010261216 -0.016736984 0.0006901835 0.0004069128 0.060607955 0.020748794
-0.0034762963 -0.00010579925 0.02853275 -0.08486352 -7.424848e-05 -0.05605544 -0.04843825 -0.0003861843
0.016934166 -0.0099909995 0.033155657 0.00039269697 -0.069106914 -0.013021308 -0.05665657 -0.08719105
-0.061445877 -0.07348262 -0.006630719 0.00859851 0.032868035 0.04233451 0.021655696 0.00062800135
0.043948464 0.026437487 -0.013115921 -0.08246792 0.062371206 -0.06873388 -0.0039735357 0.0006226626
-0.0042706574 -0.03269379 -0.036407214 0.047455277 -0.07520692 -0.023020387 -0.09586113 0.026169673
-0.005923968 -0.050587382 -0.07849921 0.04583371 0.025016729 0.00015660819 -0.06405619 -0.0266345
-0.03598748 0.016077649 0.015319557 0.010713729 0.03648508 -0.04466619 0.010457043 0.008797463
-0.020824388 -0.033786967 0.017625012 -0.06559844 0.044667654 0.021584371 0.04505209 -0.050639085
-0.03938403 0.0034222656 -0.06106623 6.137046e-05 -0.000221792 0.0014927892 -0.0042695487 0.018055795
0.0055952803 0.0062170047 -0.07718843 0.030726563 -0.04686608 -0.08802819 0.027752545 0.041354407
-0.0030916024 -0.02623479 -0.032604977 0.021921279 -0.0120672565 -0.060704626 0.07098001 0.012022993
-0.06075355 0.00024313111 -0.039102424 0.03144416 0.007205678 0.00022991697 0.022931919 0.0005455005
-0.00837354 0.009736445 -0.042366672 -0.0425443 -0.00011195338 -0.00024566037 -0.07074233 0.037391625
0.009210239 0.039135758 0.04748208 0.044214237 0.031727545 -0.0001815849 -0.023394559 0.0074221008
-0.032384027 0.03124187 0.016141016 -0.061238963 -0.0035977121 0.036350742 0.0391028 0.052647244
-1.534922e-05 -0.019641183 0.016209377 -0.00014036373 -0.018286206 -0.012964528 -0.003799596 -0.006726154
0.0002998494 -0.020310447 0.0031287635 -0.0033541713 0.027101496 1.0816028e-07 -0.09452032 -0.0037025928
0.034371506 -0.035945527 -0.086069874 -0.0011148535 0.058642223 0.022989675 -0.004169559 -0.085037634
-0.01649201 -0.05300902 0.04635677 -0.084561326 0.011943702 -0.04038582 0.037428036 -0.00027125917
4.775108e-05 0.0699053 0.021418868 0.024170082 0.00071875245 -0.022239579 -0.06472928 -0.00023430867
0.02841794 -0.029330973 2.412237e-05 -0.0063110013 -0.047010988 -0.024123188 -0.00035204986 -0.042717487
-0.033142615 0.038982727 -0.07415192 -0.06469455 -0.02053945 -0.027660681 -0.037304055 0.061637882
-0.0013555248 0.0052575385 -1.6426004e-05 -0.0052863834 -0.064754635 -0.017240781 0.04827885 0.04077652
-0.008145339 -0.06702598 5.766169e-05 -0.051823966 0.021264404 -0.008712991 0.058931176 -0.036229175
-0.0067009004 -0.030295363 0.0040593785 -0.021096034 -0.071092695 -0.037952203 0.0132630095 0.014089387
0.00010112173 0.043955088 -0.019267263 -0.06957894 0.031560462 -0.015614837 -0.060846526 -0.07114862

blocks.1.linear.bias f4 [155]
00000000: 7491 8f3c 76a7 d9bd 22d2 b0bd babd 823c
00000010: c3b6 0dbd 91b8 d03c 6524 04be d8a3 20bc
00000020: a776 c1bd 1a80 e3bc 3c9d b5bd 384d 70bd
00000030: bab1 ccbc c962 b63c 5dc7 1abc 3571 95bd
00000040: 40ca 9cbc 653f 50bd d43f e6bd 44ef bbbb
00000050: 0c1a 25bd 727b e0bd d4c9 34bd d94a d9bd
00000060: e979 a1bd 103b 4f3c 77f0 98bd 6158 d3bd
00000070: 0a12 93bd f791 1bbd e8b3 c5bd f792 05bd
00000080: cf81 98bb 0403 163d 52d4 71bc 018d 62bd
00000090: a3cd d1bd 806c d43c a287 0cbd 6359 a93c
000000a0: 2af4 37bd 450a a1bd 06ca 98bd 5065 113c
000000b0: 9354 c2bc a248 6bbc 0641 803c 15b6 abbd
000000c0: 69a1 533c 8d18 96bd 9c11 b7bc d6d1 4639
000000d0: b5d0 14bc 96bc ac3c 98a1 f4bd 986d 1bbd
000000e0: f62e d2bd 389a 0c3d 4b58 aa3c 6e3e f7bd
000000f0: 3570 073c 5ff0 c53b 2853 263c 32f1 fb3a
00000100: 2158 f5bd b3a7 86bd fc54 e4bd 4a63 133c
00000110: bc37 5fbd 7685 16bd 5acd 343c 8c7c c4bd
00000120: 227b fbbd 653a 1c3b a6b3 dabc bc0b 73bc
00000130: 0d63 3bbc 1e50 52bd 8a10 cf3c bd43 72bd
00000140: c583 f3bd fb4e 8ebc cb05 d2bd 07a1 94bd
00000150: 164c 14bd 4157 923c 21ed 99bc 145c 0b3d
00000160: ad08 e6bd 1152 0cbd 55bc 01bd 2bb7 d8bd
00000170: d1c9 b8bd 2f7f b739 1378 eabd 96e6 043d
00000180: 2677 99bd 8e1c 32bd 181c 023d 86eb 61bd
00000190: 2eaa a6bd f1f3 a4bc fa4e f4bd 0750 bbbd
000001a0: cdcf bfbd e8ff 23bb ad56 86bc cd74 aabd
000001b0: 978e 7cbc 3315 e9bd 47bd d8bd 6563 03be
000001c0: a92a 61bd 49c3 27bd d232 b4bd a222 0cbd
000001d0: eb1d 9cbd 113c d0bd 3574 35bd a6b2 ffbd
000001e0: 60cd b23a d8ce b1bd 511a 4fbd 1016 01be
000001f0: 388f 4abd 6437 063c a5ec e7bb 9421 363c
00000200: 5b78 d5bd 0e33 a2bd cf40 59bd 3b0e c8bd
00000210: 39bc 7fbd 5ddd c0bc 101e d0bd 591a d83c
00000220: 97f8 fcbd 39e2 12bd 90f0 05bd 99a3 86bc
00000230: 5633 91bd ea38 01bd c085 32bd 6d22 d5bd
00000240: a3ed 19bd e8a5 e0bd 4ee7 e3bd c7a1 acb9
00000250: 3185 9d3c e0d0 32bd 4014 66bc 6bb5 b03c
00000260: 601d 5fbd a773 88bd 24b9 09bd
0.017525412 -0.10627644 -0.0863383 0.01595961 -0.034598123 0.025478633 -0.12904508 -0.009804688
-0.09446459 -0.027771045 -0.08867881 -0.05866739 -0.02498709 0.022263901 -0.009446946 -0.07296983
-0.019139409 -0.050841708 -0.11242643 -0.00573531 -0.040308043 -0.10961045 -0.04413779 -0.10609979
-0.07884581 0.012648359 -0.0746774 -0.10319591 -0.07181175 -0.037981 -0.09653455 -0.03261086
-0.0046541463 0.03662397 -0.014760094 -0.055310253 -0.102443 0.025930643 -0.034309037 0.020672506
-0.044910587 -0.07863287 -0.07460408 0.008874252 -0.023721969 -0.014360579 0.015656006 -0.08384339
0.012916901 -0.073289014 -0.022347264 0.00018960921 -0.009082963 0.021086019 -0.11944884 -0.037946314
-0.10262863 0.034326762 0.020794054 -0.120724544 0.008266498 0.0060406174 0.010151662 0.0019221662
-0.119797 -0.06574955 -0.11149022 0.00899584 -0.05449651 -0.036748372 0.011035288 -0.09594068
-0.12279345 0.0023838517 -0.026696991 -0.014834341 -0.01143719 -0.051345937 0.025276441 -0.05914663
-0.118903674 -0.017371645 -0.10255011 -0.07257276 -0.036205374 0.017863872 -0.01878983 0.03402336
-0.112321235 -0.034257952 -0.031673748 -0.105818115 -0.090228684 0.0003499924 -0.114486836 0.032446466
-0.07493429 -0.043484263 0.031765074 -0.055156253 -0.08137928 -0.020135852 -0.11929126 -0.091461234
-0.09365807 -0.0025024358 -0.016398752 -0.08323059 -0.015414855 -0.113809966 -0.10582977 -0.12830885
-0.054972325 -0.040957723 -0.08798756 -0.034212716 -0.07622894 -0.10167707 -0.044300277 -0.12485246
0.0013641529 -0.086820304 -0.050562207 -0.12606072 -0.04945299 0.008191917 -0.007077771 0.011116404
-0.104233466 -0.07919894 -0.053040322 -0.09768339 -0.062435362 -0.023543054 -0.10161984 0.026379751
-0.12352102 -0.035860274 -0.03270012 -0.016435431 -0.0708987 -0.031548418 -0.043584585 -0.10406957
-0.037580144 -0.10969144 -0.11128102 -0.0003292693 0.01922855 -0.04365623 -0.014042914 0.021570882
-0.054471374 -0.06662684 -0.03362383

blocks.2.linear.weight f4 [155, 155]
00000000: 1bcf 183d d52f 59bd 8fcd 2a3c 90f4 313d
00000010: b0c6 093d c6a0 033d ca2c 253d 7f5e 4ebc
00000020: 4fa4 b53b 18ea 7abd bd15 98bd 77ac 63bd
00000030: 034e 24bd 1d40 be39 b7bc 3d3d a5b7 13bc
00000040: d7a8 71bd 4acd 16bd ca02 fabc f5af 90bd
00000050: 16b3 023d b77c 92bb a0e4 593d d78e babd
00000060: 0db6 4a3d 78b6 babd a1b2 8abd 541b cfbc
00000070: 2863 9bbd c2ca 143d 2491 8abd 2a9a 94bd
00000080: 265b f2bc 410c 73bd 412c 23bc e66c 4b3c
00000090: 8951 9c3c a308 72bd aee9 e0bb f5df 353d
000000a0: 3669 413d 97bf 853b bd10 56bd 8d1e a0bd
000000b0: 87bb 7c3c e7c6 e73c c66e a43c 7954 a0bc
000000c0: 9c8c 70bd 531d 053d 952d 2c3c 41e4 c13c
000000d0: 7663 1ebd 8499 55bd 6312 a53c 80e7 4f3c
000000e0: 53e3 5b3d 420d 20bc 2351 713d 7d3f 89bd
000000f0: d7be c7ba 380d 9abd be2f f03c d015 6abd
00000100: f044 833d ed0b 5e3d 4157 2d3d e666 483d
00000110: 9dee a1bd 525f 333d 7250 013d 536b 5b3d
00000120: a632 673c ff7d 80bd 0939 0dbd 3a97 2f3d
00000130: b706 ae3c af19 40bd 2c17 863d a8b6 85bd
00000140: ff14 363b 9985 ed3c c82a 5b3c c5ca 5a3c
00000150: 9c72 e63c 4599 f6bc bb2f a3bc 960b 99bc
00000160: 0fa7 0cbc 005b 273d e26a 89bd 1ee3 34bd
00000170: b480 5e3d dffb 013d 16fd 693c 361e 473b
00000180: 0361 d2bc 22a7 853d c6f2 99ba d322 893c
00000190: 6a46 c4bc 941f 56bd 5b78 c0bc ba96 82bd
000001a0: 2187 a1bd 8679 d9bc cd44 bebc 4224 3e3d
000001b0: 0529 173c 35ff bdba 1136 703c aa2d d2bb
000001c0: 02af ba3b ecfa 98bd efe8 a63c 5b1a 563b
000001d0: c661 383d 882c 4bbd 7931 1f3d 0644 a8bc
000001e0: 86c3 853d 85c4 f5bc 730e aabd 4990 82bd
000001f0: 26e3 f73c b837 bfbc af15 613c 6695 753d
00000200: c383 4bbd 839e 673d 0ffd 20bc b120 09bb
00000210: 0071 363c 0669 7bbb 9316 abbc 5420 123c
00000220: 6350 e33c 8d8c 9dbb b201 bb3c 798e 9dbc
00000230: 69b7 563d c0e9 3f3d f50d 24bb 356a 573d
00000240: 0d32 b8bd 7772 83bc a278 59ba 66cf 9e3a
00000250: 623d 87bd 7186 5fbb 633f 613c 365e 0dbd
00000260: ddcf 65bd 4001 893d af65 683d d95f 6bbd
00000270: f634 ed3c e4eb d2bb 9a3b 013d 0390 4dbc
00000280: 84c8 29bd 5b77 40bd 09d2 953c 749f 653d
00000290: 9d33 f23c f2dc 3cbd 693d 74bd e296 8cbc
000002a0: 1c91 313a cd97 a9bc acce 6e3c 7832 2e3d
000002b0: 2c7e 293d 8d78 82bd be31 d63c 0357 82bd
000002c0: 843c 773d 1cdb 0e3d 6838 4f3c 1704 42bd
000002d0: 9ed7 7d3d edd9 e93b 6544 313b 8993 17bd
000002e0: 6648 013c 8ead e83c f8be 89bc 90e4 85bc
000002f0: 46ed c43c 6d2f 48bd c967 c1bc dbd5 63bd
00000300: 405d c0bc fd7b 99bd 9acf aebb 7db1 8a3c
00000310: 2a7b 19bd e82a 34bd 9981 db3b 08b3 96bd
00000320: 93dd 643d e505 503d 2b60 9cbc 9ef1 f9bc
00000330: 0484 1c3c 7326 613c 2480 39bd 6b63 f8bc
00000340: 7d60 b9bc 2649 833c 39f0 04bd 55dc 103d
00000350: dec3 8abd c1d2 babb d9f1 243d 14c8 883d
00000360: cab4 4bbd 92a7 6ebd 111e 5bbd d52b bb3b
00000370: f4b2 86bd 9cf1 5b3c 5d55 ef3c 5734 97bc
00000380: 574e c33c 01d0 293d 78c2 cabc 3d2e 53bd
00000390: 0a8e 0e3c 118a c83c b336 68bd 6ee2 a3bb
000003a0: a97c 96bd f637 d5bb 94e8 4cbc c874 083d
000003b0: db8c b1bd 0dc7 4bbd 1a13 fb3c 6cd0 8ebd
000003c0: 887a ee3c b8e4 043d 5baa 23bd 6fd4 4e3d
000003d0: 173f ae3c 41f0 5dbc f8e8 f03c 3b1f 0e3d
000003e0: 6e0a 783d 0889 bebc 4af2 5abd 2d9d 99bd
000003f0: 0d52 4a3d 589d aa3b 9520 cf3c 323c 983b
0.037306886 -0.05302413 0.010424986 0.043446124 0.03363675 0.032135747 0.040325917 -0.012595772
0.0055432688 -0.061258405 -0.07426021 -0.055584397 -0.04011346 0.00036287392 0.04632255 -0.009015952
-0.05899891 -0.036816873 -0.030518908 -0.07064811 0.03190907 -0.0044704336 0.05319655 -0.09109276
0.049490023 -0.091168344 -0.06772352 -0.025281586 -0.07587272 0.036326177 -0.067659646 -0.07255967
-0.029584479 -0.059337858 -0.009959281 0.0124161 0.019081848 -0.059090268 -0.0068637943 0.044403035
0.047219478 0.004081677 -0.052262057 -0.07818327 0.015425569 0.028293086 0.020072352 -0.01957153
-0.058727846 0.03249867 0.0105089145 0.02366841 -0.038669072 -0.052148357 0.020150369 0.012689471
0.05368359 -0.009768786 0.05891527 -0.067015626 -0.001523937 -0.075220525 0.02931964 -0.05714971
0.06409633 0.054210592 0.04231954 0.048926257 -0.0790684 0.043792076 0.03157086 0.05356915
0.014111197 -0.06274032 -0.03447822 0.04286883 0.021243436 -0.046899494 0.065473884 -0.065289795
0.002778351 0.028994368 0.013376899 0.013354008 0.028130822 -0.030102381 -0.01992022 -0.018682282
-0.008584752 0.04085827 -0.067098394 -0.04416191 0.05432196 0.031734344 0.014281532 0.0030382997
-0.025681024 0.06526019 -0.0011745326 0.016740238 -0.023959357 -0.05227621 -0.02349489 -0.06376405
-0.07887102 -0.026547205 -0.023226166 0.046421297 0.009226088 -0.0014495613 0.014661328 -0.006414135
0.005697132 -0.074697345 0.020374743 0.0032669518 0.04501512 -0.049603015 0.03886554 -0.020540249
0.06531434 -0.030000934 -0.08303537 -0.063751765 0.03025968 -0.023341998 0.01373808 0.05995693
-0.049686205 0.056547653 -0.009825959 -0.0020924027 0.01113534 -0.003836216 -0.020884788 0.00891884
0.027748292 -0.0048080147 0.022827957 -0.019232975 0.052421007 0.04685378 -0.0025032733 0.05259152
-0.089939214 -0.016045792 -0.0008295869 0.0012116253 -0.06603505 -0.0034107233 0.013748023 -0.034513675
-0.056106437 0.066896915 0.056737598 -0.057464454 0.028955918 -0.0064368118 0.03155098 -0.012546542
-0.041450992 -0.046988826 0.01828863 0.05606027 0.029565627 -0.046109147 -0.059628878 -0.01716179
0.0006773637 -0.020702267 0.014575642 0.0425286 0.041380093 -0.063706495 0.026146766 -0.063642524
0.060360447 0.034876928 0.012647726 -0.04736718 0.061973207 0.0071365745 0.0027048823 -0.037005935
0.007890796 0.02840307 -0.016814694 -0.016344339 0.024038922 -0.048873354 -0.023609059 -0.05562387
-0.023481965 -0.07494352 -0.0053348066 0.016930336 -0.037470974 -0.04398623 0.006698799 -0.07358366
0.055875372 0.05078687 -0.019088825 -0.03051072 0.009552959 0.013742077 -0.04528822 -0.030320844
-0.022629017 0.01602609 -0.032455657 0.035366375 -0.0677564 -0.0057013934 0.040269706 0.06678787
-0.04973296 -0.058265276 -0.05349547 0.0057120123 -0.06577101 0.013424303 0.02921551 -0.018457575
0.023841066 0.041458134 -0.024750933 -0.051557768 0.008700857 0.024479898 -0.05669279 -0.0050013578
-0.07347996 -0.006506915 -0.012506623 0.033314496 -0.08669444 -0.049750376 0.030648757 -0.06973347
0.029111162 0.032444686 -0.039957386 0.05049556 0.021270318 -0.0135460505 0.029407963 0.034697752
0.06055682 -0.023258701 -0.05345372 -0.07500682 0.049394656 0.005206745 0.025284091 0.0046458477

blocks.2.linear.bias f4 [155]
00000000: 8447 2fbd a8b8 bebd 8464 39bd 7ae4 67bd
00000010: eeb4 20bb 4dfe 81bd 5a02 8bbd 9600 9bbc
00000020: 252f f0bd 125d 4abc 9980 1ebd 1bf9 e2bd
00000030: b8a4 853c b2f1 c0bd fbec edbd 0d0d 74bc
00000040: a43c cbbc d01d ccbc 39a9 143d 56da 02be
00000050: fc46 babd 1b53 6dbd 5f64 4cbd ea13 edbd
00000060: 27d9 1bbd 113e 3abd b0b9 d5bd e556 5fba
00000070: 323d c6bd 5892 433d 154d 8bbd 8270 16bd
00000080: 1152 4bbd 4c10 cbbc 370d c1bc 1a58 e8bd
00000090: 3abe 01be e50d 74bd 0d9c 843c dd66 593b
000000a0: 356c 9b3c 1201 15be 598b bdbc cc46 34bd
000000b0: e773 00be ac89 9bbd bead 5b3a 1dc9 cebd
000000c0: 83b1 6ebd ebbd 97bd 1bf5 1a3d 4b35 5dbd
000000d0: 0f51 ddbd cff7 02be 838e 74bd a11d 8ebd
000000e0: ab19 c8bd bc06 4c3d c6ba 07be ff85 ccbd
000000f0: 71dd 083d d848 02be acb5 d6bd f58a 20bd
00000100: 23c5 e7bb 398f 18be d63f a4bc 0d08 7ebd
00000110: 529d a13c 9ff8 86bd f3b6 acbc 6c85 90bd
00000120: f6e8 2abd aca5 e2bd dd7c d3bd 5169 91bd
00000130: 2882 b6bd a7f9 2abd 694b babd f226 82bd
00000140: 8aaa 7239 bb91 80bb 90e6 89bd 1125 103c
00000150: 4469 eabc b77a 5b3b 0561 11be 220a 5b3d
00000160: 2751 57bd 9582 083d 028b eabd c5c6 3fbd
00000170: c269 aabd 500c 44bc b72f 7cbd 0ad8 7abc
00000180: be1e 453c 9409 253b 5b1c 87bb e30e 4abc
00000190: 8bfe 53bd c175 3c3d 70ce 963c a655 85bd
000001a0: 5d05 f9bd 00d2 a7bb 122f c9bc 8b00 0abd
000001b0: a305 d1bb ec66 d5bd 6c45 f5bd 596e fabd
000001c0: 62fb 49bd 39d4 18bd b606 ddbd 8ff6 38bd
000001d0: 7b7b 7bbd 565a 24bb 8f8a 81bd a229 a0bd
000001e0: c4ee cebd a1be 51bd f8af 063d ae17 8fbd
000001f0: a75a b1bc 4c7c 2ebc 88b6 1f3d 0682 a6bd
00000200: 3545 803c 1dfb c5bd dc98 6cbc 31e7 dabd
00000210: 894f 6f3c a7ab ec3c f53e 01bc b1f1 27be
00000220: 9a13 94bd 5e2b d5bd a0da 7f3d 6b60 913b
00000230: abb8 c4bd 597c 6f3c a763 94bd 0e0f e9bd
00000240: 7446 c0bd c196 58bd 9eb0 8b3c 9df3 febd
00000250: 7cfb 613c d956 c8bd c0e4 c4bd b501 20be
00000260: c5f0 8cbd 4f39 2b3c 00bc c9bd
-0.042792812 -0.09312564 -0.045261875 -0.056614377 -0.0024521905 -0.06347332 -0.06787558 -0.018921178
-0.11727742 -0.012351291 -0.03869686 -0.11082669 0.016313896 -0.094211 -0.11617466 -0.01489569
-0.02480919 -0.02491656 0.036294196 -0.12778601 -0.090955704 -0.057940584 -0.04990041 -0.11576064
-0.03804889 -0.045469347 -0.10435808 -0.0008519723 -0.09679641 0.047746986 -0.068018116 -0.03672839
-0.04963881 -0.024788044 -0.023565872 -0.11344929 -0.12670222 -0.059583563 0.016187692 0.0033172884
0.018972496 -0.1455119 -0.023137735 -0.04401283 -0.12544213 -0.07594618 0.00083800766 -0.10096953
-0.058274757 -0.07409271 0.037831407 -0.054005902 -0.10806476 -0.12789844 -0.059706222 -0.06939245
-0.09770521 0.04981111 -0.13254842 -0.09986495 0.033414308 -0.127231 -0.1048387 -0.03919502
-0.007073061 -0.14898385 -0.02004997 -0.062019397 0.019728336 -0.065903895 -0.02108333 -0.07056698
-0.041726075 -0.11066756 -0.1032655 -0.07100166 -0.08911544 -0.041741993 -0.090964146 -0.063550845
0.00023142449 -0.0039236224 -0.067334294 0.0087979 -0.028614648 0.0033489892 -0.14197166 0.05347646
-0.052567627 0.033327658 -0.11452295 -0.04682042 -0.08320953 -0.011965826 -0.061568942 -0.015310297
0.012031255 0.002518271 -0.0041232533 -0.012332651 -0.051756423 0.046010736 0.018408984 -0.06510477
-0.12159226 -0.0051214695 -0.024558578 -0.033691924 -0.006378846 -0.104200214 -0.11976132 -0.122280784
-0.049312003 -0.037311766 -0.10792296 -0.04515701 -0.061397057 -0.0025078258 -0.06325256 -0.07820441
-0.10104135 -0.05120719 0.03288266 -0.069869384 -0.021649672 -0.010649752 0.038992435 -0.08130269
0.015658 -0.09667037 -0.014440741 -0.106886275 0.014606365 0.028890444 -0.007888545 -0.16400792
-0.07230301 -0.10408662 0.062464356 0.0044365427 -0.09605535 0.014617049 -0.0724557 -0.113798246
-0.09388438 -0.052878145 0.017051991 -0.12448809 0.013792869 -0.0978219 -0.09613943 -0.15625651
-0.06881861 0.010450675 -0.09850311

blocks.3.linear.weight f4 [155, 155]
00000000: a529 643b bca3 6e3d dc45 4a3d ff1a b3bd
00000010: 7def ee3c 2a1c 29bc a29e 26bc f0f8 353c
00000020: b600 10bc 055c 91bd ffab 273d 8579 7fbc
00000030: 12e8 97bd 386e 0ebc 16bf 6abb c30b c8bc
00000040: 295b 97bd 7701 d43c 1c66 cbbc 4db8 dc3a
00000050: e0f8 033c 870e 91bc 5845 7c3d 345f 41bd
00000060: aacf ccbc 8acc 65bd b0f3 fdbc f65e 8bbd
00000070: 46bf 26bd 5d5e 413d 65a3 113d e249 853d
00000080: 31ed b9bc b973 8cbd 6b25 f03c b995 303d
00000090: c5d6 223d af5a d5bc 3788 16bd 7442 20bd
000000a0: 3745 0ebd 8161 b83c caec 1cbd 0928 c23c
000000b0: 3dce 8ebd 8b96 84bd 9c14 11bd 704f 223c
000000c0: eab2 b63c 535f 163d b4e4 533d 7192 133d
000000d0: f80f 263d 1835 283d 5238 8cbd d08a 753d
000000e0: 3f5f 1b3d 5a26 0b3c eb3b e5ba 1bb5 6f3b
000000f0: 26ba 253d 13fb 9dbc 6004 723b 09d8 7e3d
00000100: a150 943c 306b 353d 2374 8c3c ce53 b4bd
00000110: dd2f 473d 7894 7cbd d0bc 66bd caf7 b03c
00000120: 2323 603d 52d6 f13c 9ae8 cebb 3b21 09bd
00000130: 1082 55bd f4e3 413c ce0a 65bc 52b3 26bd
00000140: 519b 673d eab9 703d 4caa e4bc 3486 5abd
00000150: 1730 e0bc 1304 393c c519 7bbc d264 123b
00000160: 3eda e1bc 1acc dfbc 59ea e4bb 46d6 9b3c
00000170: ca64 823c 9b80 4cbd 00a0 913d 965b 133d
00000180: 63c1 80bd 0351 533d 6015 77bd 4ffd ef3c
00000190: beea 58bc 60dc 46bc 01f7 853d e1bc 3dbd
000001a0: 7563 743c c52a 993c 7e1f 61bd cf4c adbd
000001b0: 4047 363d 7f29 69bb e6cd 313d 4c3f 8bbc
000001c0: 4b50 c23c da59 053b 6130 9cbd b6f5 9fbc
000001d0: ce46 a73c 2603 293a e17d 59bd 880b a6bc
000001e0: 1e89 903d a57d c73c 930b e3bb 990d 5d3c
000001f0: 20c4 fd3c 0225 28bd cee7 02bb c80c 87bd
00000200: 20ef 5a3d 1970 07bd 3737 183c 4137 8bbd
00000210: c335 573d 9e86 b0ba 8b7f 92bd 38e7 90bc
00000220: cbba 82bd 7ba2 643d 274f b6bc e235 5f3c
00000230: 9ee6 a3bc d940 12bb 508f 11bc 625e a93c
00000240: 9d05 1e3d c4a6 5e3d 27a7 70bc b722 21bc
00000250: d7f4 96bc c290 9dbd 3a77 903b 00a6 ad3c
00000260: acf9 10bd cef0 30bd 9e71 243c f352 99bd
00000270: f75d db3c 4b9b ee3c 3df9 86bd 8803 01bd
00000280: 5de1 293d a932 9ebd c0c5 45bc 6cb6 4c3c
00000290: 50ec 573d 8e11 883d c0ef 4a3d ecf9 f0bc
000002a0: 7214 cd3c 7962 84bc 69fb 603d 5473 7ebd
000002b0: 1155 5ebc d6bc e83c d4c5 07bc 5aed 753d
000002c0: f974 16bd 75b2 febb 9a0f 033d be39 d83c
000002d0: fbe6 c73c 21c0 f23c 1574 90bd 6e69 b4bc
000002e0: 0b0b 07bd 69c2 84bd 1efb a73b 8b83 253d
000002f0: 9988 88bb 5186 afbd ebc4 0f3d d0c9 37bd
00000300: 28dc 2bbb 949b 4a3d e140 053d 32f3 993c
00000310: 4f19 16bb 241d 19bc d24d 85bb d8ca b13b
00000320: ca8d 0cbd 57e0 f33c 22b1 673c f316 49bd
00000330: 0491 43bd bb05 623d 5c7a 303d 6c2b 9fbc
00000340: ce75 d4bc 3b1b 4d3c 8bfd 5f3c 0ebf 6dbb
00000350: 0702 a7bc 708d 75bd 5a60 5c3d 39e3 903c
00000360: cf23 2abd 541f 25bd 1e4b 813d 431b 8e3d
00000370: 4873 a7bb ed5a 283c db5f a5bc d9c8 34bd
00000380: 2fe0 553d fd78 843d 3caa d6bc 59e5 75bd
00000390: b5fb 89bd 8dd3 7d3d 0fd8 233d 0f5b b9bc
000003a0: dc35 1cbc da81 643d 077f bf3c c738 d9bc
000003b0: 593c 58bc 4ffa 6f3d f0f2 46bd 1150 cc3c
000003c0: 0daa 91bd c78e 583d c5d4 5d3d e952 603d
000003d0: 8f5f 38bd 546b db3c 161c 6abb 1164 373d
000003e0: bdd2 4dbd 1081 183d e463 c1bd 176a 82bd
000003f0: 727b 6cbd dd2e 4dbd c774 dc3c c0b2 14bd
0.003481486 0.058261618 0.04938303 -0.087453835 0.029166931 -0.010321656 -0.010169657 0.011106715
-0.008789232 -0.070976295 0.040935513 -0.015592937 -0.07417311 -0.00869327 -0.0035819463 -0.02441967
-0.07390434 0.025879605 -0.024828963 0.0016839594 0.008054942 -0.017707122 0.06158957 -0.047209933
-0.025001366 -0.056103267 -0.030999988 -0.06805222 -0.040709756 0.047209132 0.035556216 0.06508233
-0.02269611 -0.0685801 0.029314717 0.043111537 0.0397556 -0.026044218 -0.036751 -0.039125875
-0.034733977 0.022507431 -0.038311757 0.02370073 -0.069729306 -0.06474026 -0.035420045 0.009906635
0.02230211 0.036712002 0.05173178 0.03602833 0.040542573 0.04106626 -0.0684668 0.059946835
0.03793263 0.00849303 -0.001748917 0.0036576453 0.040460728 -0.01928476 0.0036928877 0.062217746
0.018104853 0.044291675 0.017145222 -0.08805047 0.04862963 -0.06166503 -0.05633241 0.02160253
0.05472101 0.029521141 -0.0063143494 -0.033478957 -0.05212599 0.011834133 -0.013979627 -0.040698357
0.056544606 0.05877105 -0.027913235 -0.053350642 -0.027366681 0.011292475 -0.015325968 0.0022337926
-0.027569886 -0.027319003 -0.006985944 0.019023072 0.0159172 -0.049927335 0.07110596 0.035976015
-0.062868856 0.05159093 -0.06032312 0.029295592 -0.013239561 -0.012137502 0.06541253 -0.046322707
0.0149162905 0.018697152 -0.054961674 -0.08461916 0.044501543 -0.0035577712 0.04340925 -0.016997956
0.023719927 0.0020347745 -0.07626415 -0.019526344 0.020419504 0.00064473075 -0.053098563 -0.02026917
0.07057403 0.024351904 -0.00692887 0.013492011 0.030977309 -0.04105092 -0.0019974592 -0.06594235
0.053450704 -0.03306589 0.009290508 -0.06797648 0.052541506 -0.0013467853 -0.07153233 -0.017688379
-0.06383284 0.055819016 -0.02225454 0.0136236865 -0.020007428 -0.0022316484 -0.008884266 0.020674888
0.038579572 0.05435826 -0.01468829 -0.009834937 -0.018427296 -0.07693626 0.004408744 0.021197319
-0.035394356 -0.0431984 0.010036854 -0.074865244 0.026778204 0.029126784 -0.06590507 -0.03149751
0.04147469 -0.077245064 -0.012071073 0.012494665 0.0527156 0.06643973 0.04954505 -0.029416047
0.025034163 -0.016160237 0.054927263 -0.062121704 -0.013570086 0.028410356 -0.008286912 0.06004081
-0.036732648 -0.0077727386 0.0319973 0.026394721 0.024402132 0.02963263 -0.07053391 -0.022022929
-0.032969516 -0.06482393 0.005126371 0.040408652 -0.0041666743 -0.08570541 0.035099905 -0.044870198
-0.0026223753 0.049464777 0.032532576 0.018792722 -0.0022903269 -0.009345327 -0.004068115 0.005425792
-0.034314908 0.02977006 0.014141353 -0.04909415 -0.04774572 0.055181246 0.04308544 -0.019429885
-0.02593508 0.012518699 0.013671289 -0.0036277208 -0.020386709 -0.05994934 0.053802826 0.017686473
-0.041538056 -0.04031308 0.063131556 0.069387935 -0.005110178 0.010275585 -0.020187309 -0.044136856
0.05221575 0.06468389 -0.026204221 -0.060033176 -0.067374624 0.06196933 0.04000097 -0.022626428
-0.009534325 0.0557879 0.023376001 -0.026516331 -0.013197982 0.058588322 -0.048571527 0.024940522
-0.07112513 0.052870538 0.05415799 0.05476657 -0.045013007 0.026784576 -0.0035722307 0.044773165
-0.050249804 0.03723246 -0.09442881 -0.06367891 -0.057734914 -0.05009352 0.026911153 -0.03630328

blocks.3.linear.bias f4 [155]
00000000: b1a1 453c fe1b 00be 09be 29bd b237 00be
00000010: 05d9 7d3c 4cd7 e5bd 7833 f8bd 8afa 3abd
00000020: 23fa 66bc 662b d5bd 5629 f4bd 6c18 85bd
00000030: cbcd 8cbd 2571 1abd a733 e1bd 2d68 e8bd
00000040: 2bd7 c1bd dea4 a9bd c729 02be e36b 2fbe
00000050: 8ec0 d2bd b58c 8d3c b5d7 d9bd 68b3 ecbc
00000060: 285e debd 11aa 16bd ecee ffbc 47bd 0cbd
00000070: af49 2fbd 8c8d 30bd fd71 1fbe afb5 65bd
00000080: 8119 27bd f835 7bbb a95e b6bd e810 08bd
00000090: 01cd 16be 8d3c 9abd cdec fabc 2609 f0bc
000000a0: ec93 a0bd 886e f0bc 5fcb 6dbd f804 a83c
000000b0: 8ef5 74bd 7ed2 c5bc b296 70bd 7c5a 2fbe
000000c0: eedf 36bd 51d7 d6bd 1b63 eabd 721f 8fbd
000000d0: f0f9 a3bc d747 053d 9795 6fbe 5157 4839
000000e0: 8e1c 1cbd be38 b4bd 2f64 1b39 9444 a3bd
000000f0: 1a2c a83c 08cb 32be 2781 28bc 1105 32bd
00000100: cc92 1b3d 1328 cbbc dd44 cabd 1e5f ccbd
00000110: c8ad 0bbe 75ee 6dbd ad19 9abd 2c88 13bd
00000120: 8758 f6bd 9c9f 9cbc 7a46 1bbd 3e62 4ebe
00000130: fdfe 24bd a250 88bd a055 85bd 6a64 8ebd
00000140: b565 f5bc 4aa5 16be 64a4 5dbc 43eb 70bd
00000150: 6a9d 60bd 3e33 d2bd cc6b d0bd e0cd 8bbd
00000160: 341c 05be 92be 94bd b1cb 1a3c f729 bdbd
00000170: e457 d5bd a9c6 2cbd c45b 16be 46b3 b5bd
00000180: d9c7 c53c ccfd 0bbe 2627 9bbd 7a32 b2bd
00000190: 4734 debd 7708 95bd 2179 a13a 70d9 48bd
000001a0: 05cb 11be 77f6 01bc 36d8 8e3c 4e68 353c
000001b0: 459b 89bd 5880 cdbd 83be 3c3c cfc4 8fbd
000001c0: 9bf7 2fbd 8fe0 5bbd 71b0 03be ed02 9abc
000001d0: cf61 e3bd b535 09bd e7b8 ecbc e1b6 febd
000001e0: 6cf4 68bc 9e50 28bd 938c 85bd 8c1a 68bd
000001f0: cd63 483c ea11 9abd d4b0 cebc dfa4 67bd
00000200: 3076 133d 290b dbbd bff1 a0bd 9d49 76bc
00000210: 0721 0bbe 3a4f fcbd 7212 c0bd acd7 3ebe
00000220: 2db0 c6bd 97ab e13b d92b edbd f986 e9ba
00000230: b56e ccbc 76ed eebd 3f77 f83c faf9 89bc
00000240: 733c 1dbd 974e eabd 7339 a13c a55a cebd
00000250: 2333 33be 7cee 1e3d e8ae 39bd 5644 af3b
00000260: 63a3 74bd 3e98 33bd 0caf d63c
0.012062476 -0.12510678 -0.041440997 -0.12521246 0.015493636 -0.11222705 -0.12119192 -0.04564909
-0.014097723 -0.10408668 -0.11921947 -0.06498799 -0.068751894 -0.03770556 -0.1099618 -0.11347995
-0.09464868 -0.08283399 -0.1271125 -0.17131 -0.10290633 0.017279008 -0.10636846 -0.028894141
-0.10857803 -0.03678328 -0.031241857 -0.034360196 -0.04279488 -0.04310374 -0.15570827 -0.05608147
-0.040795807 -0.0038331728 -0.08904774 -0.033219248 -0.1472664 -0.075310804 -0.030630494 -0.029301237
-0.07840714 -0.02934958 -0.058055278 0.020510182 -0.05980449 -0.024148222 -0.058737464 -0.17124361
-0.04464715 -0.10490287 -0.11444684 -0.069884196 -0.02001664 0.032539215 -0.23396908 0.00019106014
-0.03811317 -0.08799885 0.00014819273 -0.079720646 0.020528842 -0.17460263 -0.010284699 -0.043461863
0.037981793 -0.024799382 -0.09876416 -0.0997908 -0.13640511 -0.05808874 -0.075244285 -0.036018535
-0.12028604 -0.019119076 -0.03790901 -0.20154664 -0.04028224 -0.066560045 -0.06510472 -0.06952746
-0.029955724 -0.1471149 -0.013527963 -0.058818113 -0.05483762 -0.1026368 -0.101768106 -0.06826377
-0.1299904 -0.07262911 0.009447978 -0.0923652 -0.104171544 -0.042181645 -0.14683443 -0.08872084
0.024143146 -0.13671035 -0.07575826 -0.08701034 -0.10849815 -0.07277005 0.0012319424 -0.04903549
-0.14237602 -0.007932297 0.017437082 0.011072231 -0.067190684 -0.10034245 0.011520031 -0.0701996
-0.042960744 -0.053680953 -0.12860276 -0.018800223 -0.1110264 -0.033498485 -0.028896762 -0.12437225
-0.014218431 -0.041092508 -0.06520953 -0.056665942 0.012230826 -0.07522948 -0.025230803 -0.056553718
0.036001384 -0.10695488 -0.078586094 -0.015032199 -0.13586818 -0.12319799 -0.09378518 -0.1863696
-0.097015716 0.00688691 -0.11580629 -0.0017816714 -0.024955133 -0.11666386 0.030330298 -0.01684283
-0.038387727 -0.11440771 0.019680714 -0.10075883 -0.17499976 0.038801655 -0.04533282 0.0053487225
-0.05972613 -0.04384636 0.026206516

output.weight f4 [1, 155]
00000000: aaf7 09b8 96aa bf38 7b58 b439 2515 6c38
00000010: 8917 8939 506f 7ab7 7e72 5eb8 fe62 e8b8
00000020: d107 4db9 2f5c aeb9 108e 0b39 e7a9 3f39
00000030: a0eb 48b6 575f 2eb9 5a53 2639 24f6 90b8
00000040: 87c9 9bb8 7239 48b9 001c 9439 fb81 e6b9
00000050: ce42 84b9 bcc6 d6b8 d4a9 60b8 80a0 63b7
00000060: f67d 73b9 39f5 cab8 abdf 56b9 f0a0 2339
00000070: 3866 0339 ecb2 2939 b85f 10b9 600f cbb8
00000080: 2267 ecb8 7c1d b8b8 2e19 39b8 84b9 e8b8
00000090: bac9 81b8 fb00 a638 1c49 9739 14a9 feb8
000000a0: 1022 cd38 cae2 14b8 d459 7eb9 6572 06b9
000000b0: b026 5cb7 b95a edb9 1f8d 73b9 dc2f 8eb9
000000c0: dfc9 88b8 20fb 8b38 122d 123a b67c a239
000000d0: 349f dfb7 8e72 0a3a 2633 fc38 8261 8fb9
000000e0: a4f8 c7b9 e452 0fb9 b3c7 11b9 501e 24b8
000000f0: 5827 dd38 dadd 8cb9 9e3b c5b9 96b8 70b9
00000100: c377 f1b9 7db9 5f39 68a2 d839 10b5 3239
00000110: dff3 68b9 23ac 8038 0280 6038 284e 5e3a
00000120: 9829 a139 b00e b0b6 054a 4b38 6e8e 523a
00000130: d2e7 7b38 47a9 5c39 90bd fc38 7886 a039
00000140: 740c 9bb8 b55d 0ab8 0003 a934 367f ebb9
00000150: fbcc 3439 34cc 26b9 34dc 0a3a 64c1 e538
00000160: 6e06 9cb8 3a3f 3c39 6caa 6a39 1d52 c8b8
00000170: d565 edb8 96d7 04b9 54f5 4c39 d0f6 83b8
00000180: d6c6 5439 4ab7 4cb9 120f 2c39 033f a1b9
00000190: a5ac 79b8 6003 46b9 5a82 8839 0ea4 c038
000001a0: 0307 f7b9 d526 13b9 a483 2ab8 5674 c1b8
000001b0: 7b4c 1039 5f15 c537 d2f1 be39 6476 93b9
000001c0: 06f5 0139 9873 bdb8 33f7 b9b9 ed08 8838
000001d0: ced2 053a 30f0 e438 c36e 0439 848c e1b8
000001e0: b001 e137 f6a1 ecb8 671c 79b9 067f b5b8
000001f0: 78ad 5339 c458 30b8 42fe d939 6fd6 f0b8
00000200: d458 0e3a 627a b5b9 4453 9239 54c5 2539
00000210: b040 5139 399e 3439 0246 96b9 db62 a7b8
00000220: c6c4 8539 470d 9d39 8f80 beb9 3287 3638
00000230: 522a eeb9 5ac1 74b9 3d91 d8b8 6b01 1f3a
00000240: 8edc aa39 a09a a837 623e a8b9 7897 a239
00000250: 2da0 7d38 9c91 2eb9 b208 27b9 3298 e639
00000260: 84fa e637 2b48 10b8 7de3 dab9
-3.2894e-05 9.139364e-05 0.00034398198 5.6286477e-05 0.0002614821 -1.4927078e-05 -5.3035554e-05 -0.00011081061
-0.00019553235 -0.00033256548 0.00013308995 0.00018278473 -2.9939474e-06 -0.0001662945 0.00015862045 -6.912302e-05
-7.428513e-05 -0.00019094886 0.0002824962 -0.00043965862 -0.00025226775 -0.00010241332 -5.3563926e-05 -1.3567624e-05
-0.0002322121 -9.677787e-05 -0.00020491953 0.00015604845 0.00012531213 0.0001618375 -0.00013768568 -9.682658e-05
-0.00011272567 -8.7792956e-05 -4.4130888e-05 -0.00011097177 -6.188774e-05 7.9156795e-05 0.00028855435 -0.00012143157
9.7815064e-05 -3.5497163e-05 -0.00024256791 -0.00012821851 -1.31220295e-05 -0.00045271756 -0.00023226858 -0.0002712001
-6.522587e-05 6.674812e-05 0.0005576174 0.00030991965 -2.6657806e-05 0.0005281352 0.000120258235 -0.00027347734
-0.0003814149 -0.00013668422 -0.00013902671 -3.9128878e-05 0.000105454295 -0.00026868173 -0.00037619186 -0.00022956947
-0.00046056331 0.00021336037 0.00041319733 0.00017042854 -0.00022216093 6.1355786e-05 5.352498e-05 0.0008480274
0.00030739303 -5.2469186e-06 4.8467908e-05 0.0008032088 6.0058963e-05 0.00021043896 0.00012051605 0.00030617765
-7.3932955e-05 -3.2989035e-05 3.1480886e-07 -0.00044917472 0.00017242499 -0.00015907065 0.0005297095 0.00010955593
-7.439857e-05 0.00017952631 0.00022379466 -9.552038e-05 -0.00011320008 -0.00012668813 0.00019546348 -6.292539e-05
0.00020291968 -0.00019523237 0.00016408812 -0.0003075526 -5.9527014e-05 -0.00018884009 0.0002603706 9.185831e-05
-0.00047116735 -0.00014033479 -4.065376e-05 -9.2246264e-05 0.00013761401 2.3494182e-05 0.00036419794 -0.00028126233
0.00012393677 -9.033753e-05 -0.00035470127 6.486648e-05 0.000510496 0.000109166256 0.00012629763 -0.00010755009
2.6822876e-05 -0.000112835245 -0.00023757071 -8.6544125e-05 0.0002018715 -4.204434e-05 0.00041578902 -0.00011484033
0.00054301065 -0.00034614193 0.00027909328 0.00015809137 0.00019955891 0.0001722508 -0.0002866239 -7.981594e-05
0.00025514344 0.00029955266 -0.00036335408 4.3518092e-05 -0.0004542643 -0.00023341682 -0.00010326735 0.000606558
0.00032589253 2.0099164e-05 -0.00032089936 0.000310119 6.0469076e-05 -0.00016648177 -0.000159296 0.00043982413
2.7534792e-05 -3.4399487e-05 -0.00041749692
